training_outputs/addition_fixed/checkpoint-59350/pytorch_model.bin (torch, 114437 bytes, 29 tensors)

transformer.wte.weight f4 [15, 32]
00000000: f3ef 98bc e897 0f3e 1a49 0cbd 8567 2cbe
00000010: 4772 48bd 2b09 ec3c 1093 77bc 8491 2f3e
00000020: c9bc bfbd 7fcc b13e 1502 143e 160b 913e
00000030: ffda 333d 0f59 61be c679 75be 0d10 acbe
00000040: 3cad d33d 4a85 9ebe 7ab8 a4bd 3965 903e
00000050: 5df5 67bd ead2 45be cd03 3cbc 3692 b9bc
00000060: 0b86 55bd f30f 4c3c cf3a e7bd 147b 103e
00000070: 0194 6abe a20c 2c3e a8e4 84be 1749 d6be
00000080: 74fc f63d 9969 573d abac 993d 0cca 03be
00000090: 5c7d 55bd ba3e a63d 23fe 653e 8039 f13e
000000a0: 266d dcbd 4e6f 0ebc 6e61 82bd 74a9 3f3d
000000b0: 9280 20bd 8bbc 123e 7a9a 8cbe 13ac cf3d
000000c0: 7c99 783e 2b23 c4be 7d54 7ebc 1d0d e5bd
000000d0: 8f2f 4dbe 62cb c7bd 6474 e1bd f6ec dd3e
000000e0: 5f06 a73e 96ff 9e3d 1d37 1abe e705 873d
000000f0: 903b 6a3d 4d03 103e 45b0 83be 3572 5cbe
00000100: 7e22 7f3e d082 83be 2420 45be 184b a9bb
00000110: 0185 3ebe 47c7 dc3d 987c d03e b511 e53e
00000120: d3e7 333e 2a27 94bc b39c cabd 4f46 28be
00000130: a98a 8a3e ad32 833d 7cb2 22be 2ab0 6a3d
00000140: 633e 1c3e 3208 033d 5b23 99be 41fc a1bd
00000150: 9187 61be 0f30 a4bd e017 4cbe 654e 80bd
00000160: a84e 103f b5dc d83d 3e6d 17bd 1a1b 943b
00000170: 55bf b63d 9b1a e1bc 5ea7 89be 2f17 093e
00000180: 0a99 1e3e 0893 b8be 57b9 73be d00d 9a3d
00000190: 523b e6bd ec8e cb3d 9612 023e 8083 f73d
000001a0: 1ab5 323e b26b 86bd 537b 28be e37c 52be
000001b0: e772 113f f405 75be 8921 883d 1640 5ebe
000001c0: 0f0d 2e3d 185a 033e 78d4 d1be efe2 a1bd
000001d0: d516 073e 49c3 c3bd 7925 9bbe e32a f9bd
000001e0: 7e82 a23e ddbd d93d dd44 863e 0a87 33bc
000001f0: 1197 653e 430b 0abe 8fd3 50be abdf 983e
00000200: 8da6 83be c4cc 6ebd f188 a53d 7506 833e
00000210: 0cc5 f73d e543 f43d 2bb9 6cbd e45e 8b3d
00000220: 70cb f9bd 3c6c 21be c65c 25be b5b2 11ba
00000230: 6ffe ec3e a631 f2be b2fc 9f3c f67a 9fbe
00000240: 6d67 0dbe e61a bd3d 3ef5 52be 57ed a7bd
00000250: 606a 913e 3d10 b3bd 12c7 81be 3176 22be
00000260: 62ff 693d 6bc4 023e 5027 283f aa60 d8bd
00000270: 9e13 c93e e630 9abd a81f 3bbd 2c53 7c3e
00000280: f942 60be 1fcd a13d 7d4e a73e d1ec 133f
00000290: b48e 0f3f 92d1 ef3d 7d09 02bd 1689 ff3c
000002a0: f126 5dbe 052e aabe 3a62 43be 7f4e 9fbb
000002b0: bd84 bf3c f418 6ebe a810 9ebe d527 8abe
000002c0: aecd 0ebf 97aa 2f3e b784 69bd 37f3 86bd
000002d0: 9194 4d3e 8d61 a7bd 3d0a fdbd 88d0 80be
000002e0: dc4f 023d 8d91 043e c4a5 063e 4930 e0bd
000002f0: cd63 a63e 3aca 853d 9383 a53e 6406 5c3d
00000300: 936c 50bd a831 e03d 480c 2a3e 5d14 ef3d
00000310: 5096 183f f854 013e e0b7 b83b 10c6 64bd
00000320: d137 acbd 3bb7 64be fba5 01be 7423 81bd
00000330: 72eb dcbd 6481 ec3d 4a83 d1be 9894 433e
00000340: 10f9 f3be 904c bd3e c50d a33a 3558 b7bd
00000350: 5d0d 48be ecc1 90bd 3365 bbbd 26ad babe
00000360: b3bf 413d c2ef 063e 9757 61bd c78f 7e3a
00000370: 15a9 ad3d 9872 153e 2ff2 0d3f f7a6 723d
00000380: bf34 8c3e 3810 f13d c75c 89be c096 5f3d
00000390: 909f 573e 4f9d ea3d 4c19 2dbe c967 70be
000003a0: 6c9e b03e 1ff7 bebd 568f 09be aa30 7fbd
000003b0: 6c33 2dbe 5c2c b33e 072e 9abe 864c 913e
000003c0: ba87 ecbd 7706 9d3e 19df 623a b547 aebd
000003d0: 465d f5be 4101 a9bd d579 84bd e088 4abe
000003e0: 75e6 61bb f409 f63d 3648 abbd 63fd 443c
000003f0: 8f08 bbbd c2a3 483e 2128 b43e 0cbf ec3d
-0.018669104 0.14022791 -0.034249403 -0.16836365 -0.04893711 0.028812965 -0.015110746 0.17145354
-0.0936218 0.3472633 0.14453919 0.2832877 0.043910023 -0.2200663 -0.23972234 -0.33605996
0.10335776 -0.30961066 -0.080429986 0.28202227 -0.05663048 -0.19318739 -0.011475516 -0.022652727
-0.052129786 0.012454974 -0.11290514 0.1410945 -0.22908022 0.16801694 -0.259557 -0.41852638
0.1205987 0.05259094 0.07503637 -0.12870044 -0.052121505 0.08117433 0.22460227 0.47114182
-0.10763006 -0.008693529 -0.063662395 0.046792462 -0.039185114 0.14329736 -0.27461606 0.101402424
0.242773 -0.3830808 -0.015523073 -0.11184142 -0.20037673 -0.09755589 -0.11008528 0.4334485
0.32622048 0.07763593 -0.15060087 0.06592923 0.05718571 0.14063759 -0.2572042 -0.21527942
0.24915501 -0.2568574 -0.19250542 -0.0051664226 -0.18605424 0.10780197 0.40720057 0.44740072
0.17568903 -0.018085081 -0.09893169 -0.1643307 0.27058914 0.0640615 -0.15888399 0.05729691
0.15258174 0.031990238 -0.29909787 -0.07909442 -0.2202437 -0.08016979 -0.19930983 -0.062649526
0.5637002 0.105889715 -0.036969416 0.0045198323 0.089232124 -0.027478507 -0.26885504 0.1338775
0.15488067 -0.36049676 -0.2380117 0.07522166 -0.11241783 0.099393696 0.12702402 0.120856285
0.17451897 -0.0656351 -0.16453294 -0.20555453 0.5681595 -0.23928052 0.06647021 -0.21704134
0.042492922 0.12827337 -0.40982413 -0.07904612 0.13192303 -0.09558732 -0.30302027 -0.12166383
0.31740183 0.10631917 0.26224414 -0.010957489 0.22420909 -0.13480859 -0.20393203 0.29858145
-0.25713006 -0.05830075 0.0808276 0.25590864 0.120981306 0.11927012 -0.057793777 0.06805208
-0.12197006 -0.15763944 -0.16148672 -0.00055579405 0.46287867 -0.47303504 0.019529674 -0.311485
-0.13808985 0.09233646 -0.20601365 -0.08199566 0.2840147 -0.087433316 -0.2534719 -0.15865399
0.057128318 0.1277024 0.65684986 -0.10565312 0.3927278 -0.07528858 -0.045684487 0.24641103
-0.21900548 0.07900452 0.3267707 0.5778323 0.5607712 0.11709894 -0.03174733 0.031193297
-0.21596886 -0.33238235 -0.19080439 -0.0048616524 0.023378724 -0.23251706 -0.30872083 -0.26983514
-0.5578259 0.17154919 -0.057011332 -0.06589358 0.20076205 -0.08172903 -0.123554684 -0.25159097
0.03181444 0.12946148 0.13149172 -0.1094671 0.32498017 0.06532712 0.32326946 0.053717032
-0.050884794 0.10946971 0.16606247 0.11673806 0.5960436 0.1263007 0.005637154 -0.05585295
-0.08409084 -0.22335522 -0.12660973 -0.0630559 -0.10787095 0.11548117 -0.40920478 0.19099653
-0.47650957 0.36972475 0.0012440017 -0.08952371 -0.19536348 -0.07068238 -0.091501616 -0.36460227
0.04730196 0.13177398 -0.055015173 0.00097107555 0.084795155 0.14594495 0.5544767 0.05924126
0.27383992 0.117706716 -0.26828596 0.054587126 0.21056962 0.114557855 -0.16904181 -0.23477091
0.34495866 -0.09324478 -0.13433585 -0.06230227 -0.16914147 0.3499478 -0.3011324 0.28378695
-0.11549325 0.30668995 0.000865446 -0.08509771 -0.47922724 -0.08252192 -0.0646855 -0.19778776
-0.0034469638 0.12013617 -0.083633825 0.012023303 -0.09132492 0.19593719 0.35186866 0.11559877

transformer.wpe.weight f4 [14, 32]
00000000: 06c7 023e d63d d1bd a61f 30bc d3c1 b7bd
00000010: 4ae1 adbd 2ae0 653e 18e8 fa3d 1764 5b3d
00000020: 34b5 783b 45db 0ebe 9ae6 93be 73ca cb3d
00000030: 1d55 093e e268 3a3e a2f2 1c3e 2357 aabd
00000040: 59f1 e43d 756d cebd b584 103d 1191 12be
00000050: 0771 55bd b4b4 583d 0a45 0bbe 47ef ca3c
00000060: 7852 61bd 846f 963e 9943 cd3d 8dd7 c4bd
00000070: 8bae 6a3d a4a3 0fbf 6d65 013e 274d 74bd
00000080: 2e65 8e3e 5313 acbd 14a1 68be e905 90bd
00000090: 0def 263d d253 03be 5833 b73d a5c5 a13b
000000a0: 4e05 67bd 51e3 9a3d 2f73 073e 11eb 0a3d
000000b0: ec5f f3be 6e3d e4bd aebf b0be c3c9 853e
000000c0: 92fe 8b3d e4c5 febd 9f60 c23a 24eb f13d
000000d0: 8235 623e 735f df3e eb4d e53c 4aac 143e
000000e0: d521 86bd d282 0ebe 385f e03c 1396 efbe
000000f0: de5a 153e 51d8 cc3c 0466 3b3d 2e5c adbd
00000100: 0a4d 53be ffa5 0abe c886 9c3e f7c9 97bd
00000110: 6b8f c83d 7b17 853d 877c 67bd aafa 193e
00000120: cdd9 ca3d 376b 7d3d 6443 a0be f7e2 c03d
00000130: 193a 8b3c 158e d83d a53b 5bbe f5e0 f1bd
00000140: f0d7 f83c 36cd efbd c962 2cbd 5efc 37be
00000150: 4d84 87bd c6c4 853d 15e4 d03d b243 1c3e
00000160: 3b67 4e3d 9f32 523e 0f8c 883d 002e 703c
00000170: 7b89 42be d3e3 52be 958c 223e 89e1 2dbe
00000180: ced4 40be ee2f 093e d985 443d 6f44 a6bd
00000190: 3ee1 a1be 8f57 143e b1f6 183e caa2 02bf
000001a0: 6a31 94be 48c7 fb3d 2155 143e 9d72 17bf
000001b0: 10e7 24bd 9063 b53c 5336 b53e f7f3 c43e
000001c0: 687b f0bd df08 d3bd 1ab7 8d3e 483f 8abe
000001d0: e8d4 743e e39c 603d 151e a03d f571 183e
000001e0: 5d8a c13d c762 08be b45c 1ebd d810 723a
000001f0: 5352 47be 6319 dc3b fbd8 a6bd 43be 383f
00000200: bb66 7c3e d58c da3c acd5 073e 4371 e7bd
00000210: 9bac 6a3b fe39 b73e b309 4dbe d1fb 1a3e
00000220: 88da 433e d242 9bbe 64ec b8be d49c 063e
00000230: a9e9 d33c 9670 a6bc 93b9 10bd e266 5dbd
00000240: 4600 203e bfdf 193e fb39 bebd 4307 9dbd
00000250: 600b 9fbe 0112 5ebd 4607 8bbe 4601 84bd
00000260: 4ab0 e43d 22b2 143f 3488 443e ac8d 07be
00000270: d702 fe3d 9c83 32be 720d 9ebb fcf5 1dbe
00000280: 0aa9 8d3e 902a 9ebd b812 71be 8e82 89bd
00000290: 9741 2d3d 0e5a 06be 1c52 b73d a165 eb3b
000002a0: d269 5bbd 0750 973d ac8d 063e 38f6 223d
000002b0: 8888 f4be 0aa4 c0bd b8fc aebe 4006 903e
000002c0: b322 9f3d 815c febd 35fc 4dbc e219 f23d
000002d0: 7162 863e f7eb de3e 73b1 083d 8a85 193e
000002e0: cda8 80bd 83cd 04be 41b4 1a3d b859 f2be
000002f0: 35b8 e93d b9a5 92bc 3bd4 8e3d 1af7 cdbd
00000300: 80da 73be 99e4 0ebe 4ef8 9c3e 9eb4 88bd
00000310: 0ec9 c13d 9aa0 9a3d 4cb3 82bd f990 323e
00000320: e400 d13d a6e2 7a3d 1987 9dbe a340 bc3d
00000330: 7936 2f3b 3a07 ea3d 582f 6ebe 292a d8bd
00000340: e077 0e3d 81b3 f8bd 6184 25bd d6f0 42be
00000350: a3bb 4dbd a035 713d 0a43 ec3d 0954 223e
00000360: 4769 533d a97a 513e ab79 9e3d 179e 053c
00000370: 2dcd 38be 518d 6ebe 3bba 323e 6993 35be
00000380: 2c99 86bd 9a86 503e 7a19 54bd f712 1dbe
00000390: de27 8ebe c119 753d a878 813e c3e9 ddbe
000003a0: 606a a2be 819e 9d3d d186 083e 0205 0ebf
000003b0: e383 0d3d 5925 09bd 1dcc ae3e a669 a43e
000003c0: e937 e5bd 4555 93bd 2a08 f33e dd65 64be
000003d0: 5c02 f23d 9c1d 613d 4680 5f3d 9850 1e3e
000003e0: 8857 6b3c 06ae 0bbe ee03 973b c292 263d
000003f0: 90be 1bbe 30de f2bd 4098 26bd 99e8 313f
0.12771234 -0.102168724 -0.010749733 -0.08972516 -0.08490236 0.22448793 0.122512996 0.05356225
0.0037949802 -0.13950832 -0.28886873 0.099507235 0.13411374 0.18204072 0.15326932 -0.08317401
0.11178846 -0.10079471 0.03528281 -0.14313151 -0.052109744 0.052906707 -0.13600555 0.0247723
-0.05501029 0.29381955 0.10022659 -0.096114255 0.057295363 -0.5610907 0.12636347 -0.05964389
0.2781157 -0.08402123 -0.22717696 -0.07032377 0.04075532 -0.12824944 0.0894534 0.004936891
-0.056401543 0.075628884 0.13227533 0.033915583 -0.4753412 -0.11144529 -0.3452124 0.26130494
0.06835665 -0.124400884 0.0014829821 0.11812428 0.22090724 0.4362751 0.027991256 0.14518848
-0.06549422 -0.13917091 0.027389154 -0.46794185 0.14585444 0.025005491 0.045751587 -0.084648475
-0.20634857 -0.13539885 0.3057158 -0.074115686 0.0979298 0.06498619 -0.056515243 0.15037027
0.099048235 0.061869826 -0.31301415 0.0941829 0.016995477 0.10573975 -0.21409471 -0.11810485
0.030376405 -0.11709063 -0.042086396 -0.17967364 -0.06617031 0.06531672 0.10199753 0.15260199
0.050391417 0.20527123 0.06667339 0.014659405 -0.18997757 -0.2059472 0.1587394 -0.16980566
-0.18831179 0.1339719 0.04797921 -0.081185214 -0.3161716 0.14486526 0.14937855 -0.51029646
-0.2894395 0.12293869 0.14485599 -0.5915926 -0.04025942 0.022142202 0.3539301 0.3846738
-0.11742288 -0.103044264 0.27678758 -0.27001405 0.23909342 0.05483712 0.07818238 0.14887221
0.09450219 -0.1331893 -0.038662627 0.00092340773 -0.19464998 0.0067168935 -0.081468545 0.72165316
0.24648564 0.026678482 0.13265103 -0.113009 0.0035808447 0.35786432 -0.20023231 0.15135123
0.19126332 -0.30324417 -0.36117852 0.13145763 0.025868254 -0.020317357 -0.035333227 -0.054053195
0.15625104 0.15026759 -0.09288403 -0.07667401 -0.31063366 -0.05421639 -0.27153987 -0.064455554
0.11166437 0.5808431 0.19192582 -0.13237637 0.124028854 -0.17433017 -0.00482338 -0.15425867
0.2766803 -0.07722962 -0.23542297 -0.067143545 0.04229888 -0.1312029 0.08951208 0.007183746
-0.053567715 0.07388311 0.13139981 0.039785594 -0.47760415 -0.09406288 -0.34177184 0.28129768
0.0777029 -0.124199875 -0.012572338 0.11821343 0.2624698 0.43539402 0.033372354 0.14992347
-0.06282196 -0.12969021 0.03776956 -0.47334075 0.11412088 -0.017901288 0.069740735 -0.100568965
-0.2381382 -0.1395439 0.3065819 -0.06675075 0.09462176 0.075501636 -0.063818544 0.17438115
0.10205248 0.061251305 -0.30767134 0.09192016 0.002673535 0.114271596 -0.23260248 -0.105549164
0.03478229 -0.12143613 -0.04040945 -0.19037184 -0.050227772 0.05888903 0.11536224 0.1585237
0.051614072 0.20456947 0.0773805 0.008155367 -0.18047018 -0.23296095 0.17453854 -0.17732014
-0.06572184 0.20363846 -0.05178211 -0.15339266 -0.2776479 0.059839014 0.25287366 -0.4334241
-0.31721783 0.07696248 0.13332678 -0.5547639 0.034549605 -0.033482883 0.341401 0.32111853
-0.11192305 -0.07193998 0.47467166 -0.22304483 0.11816856 0.05495988 0.05456569 0.15460432
0.014364131 -0.13640603 0.0046086228 0.040667303 -0.15209413 -0.11858785 -0.04067254 0.6949554

transformer.h.0.ln_1.weight f4 [32]
00000000: b697 a13f ee4b b13f 9d3a a43f 395a b13f
00000010: a2a7 a63f bb8f c73f d250 a03f b87d a33f
00000020: f9d3 a63f 3f9f c23f 9fd7 b83f 85ad a43f
00000030: 6aba a63f fc94 a43f 5f64 a83f 3422 a43f
00000040: 6b62 ae3f cee0 b33f a7bc ae3f abed c43f
00000050: c0f9 a03f f64e ca3f d8e3 b23f 72ca c53f
00000060: 59d9 ac3f 15de cf3f 8e17 aa3f 222d be3f
00000070: d326 b33f e9db c43f a732 9e3f 8c7b 9e3f
1.2624424 1.3851297 1.2830387 1.3855659 1.3019907 1.5590738 1.2524664 1.2772741
1.3033439 1.5204848 1.4440802 1.2865454 1.3025639 1.2857966 1.3155631 1.2822938
1.3623785 1.405298 1.3651322 1.538503 1.2576218 1.5805347 1.3975782 1.5452406
1.3503829 1.6239649 1.3288438 1.4857523 1.3996223 1.5379611 1.2359208 1.2381454

transformer.h.0.ln_1.bias f4 [32]
00000000: 1906 e73c a8c1 983d 23d0 dbbd f1fa 133e
00000010: c810 d6bc 661a 263f 9504 c83b f06d 88bd
00000020: 412f 26bd 8f73 43bc 13bb 823e dcde 30bc
00000030: deab fe3e d2eb 85bd 24de 81be 219b acbc
00000040: 3641 7bbd 3d84 6f3c db0b 13be 2e98 fabd
00000050: 928b 1cbe b5f7 03be 9385 133c c25f 66be
00000060: 3260 fbbd 2cad 493e 650d e4bd 7538 d03e
00000070: 448b da3d c2fd 333e e90f fbbd e185 513c
0.02820115 0.07458812 -0.10733058 0.14451195 -0.026131049 0.6488403 0.006104062 -0.06661594
-0.04057241 -0.011929407 0.2553335 -0.010795321 0.497405 -0.0653912 -0.25364792 -0.021070065
-0.061341487 0.01461893 -0.14359991 -0.12236057 -0.15287617 -0.12887461 0.009004015 -0.22497466
-0.12274207 0.19694966 -0.11135367 0.40668073 0.10671094 0.1757727 -0.12258894 0.012788267

transformer.h.0.attn.c_attn.weight f4 [32, 96]
00000000: b20c b03d 2edd e63c 64a9 9cbc e321 15bd
00000010: 1870 b1bd 2b31 383c d07c d43d e1c0 713d
00000020: 67ae 82bd a86d ae3d 6041 e6bc a180 f0bd
00000030: 3d3d 693d 0f71 9bbd 8c62 803d f2dd d9bc
00000040: 0908 e1bc 0d85 b53c c959 34be 033f c3bd
00000050: 28de f23c 5ae5 d23d 5b01 de3d a6e7 2bbd
00000060: 13f0 893d 98ba ca3c 7ed9 7b3a 7faf 84be
00000070: 08b6 ccbc a672 c4bd 3eb1 c83c 6a7c 82bd
00000080: 1d49 563d 917d 7dbd 9fe9 203e 8e80 c73d
00000090: 597b f93d 200e 923c 2b9e d73c 4fce b4bc
000000a0: 2d97 ce3d c17e 53bd ee09 7f3c 4632 b03c
000000b0: 9d68 bfbb 4e18 3a3e 27c5 16be efd4 3ebe
000000c0: 1b31 9cbd f103 62bd 6c2f 603e 2647 063e
000000d0: dc15 793d b3fc 4abd 8949 c1bd 1761 f73d
000000e0: 671c 1e3d 63b1 e53d cc33 35bd 9421 42bd
000000f0: 7c0d 9a3c 66ae b0bd 2ba0 423d 494e 193c
00000100: 1b0c 173d 4da9 dbbd 64e0 75bd 1f3c b83c
00000110: ce2b 9a3d c7a5 e5bd 1028 873d b5b9 fb3c
00000120: 6a27 843c dd88 993c 70fb 18be fd93 95bd
00000130: 18c3 dcbd 9107 06be fab2 643b 6e0f 823d
00000140: f671 9a3b a33c c93d 4e3b bb3c 3e56 203d
00000150: b110 b6bc 1471 073e 3276 553d 32c6 7bbd
00000160: 78ed 073b 80a9 85bd a7ea 07be d729 1d3d
00000170: fc8d 3bbe 8a57 57bc 2db6 a33d 1414 8bbc
00000180: a193 4c3e d5fa af3d 563a e3bd d4e4 3bbe
00000190: a1ee c0bc 905a 24be ffb5 8b3d 7c21 093e
000001a0: ed51 5ebd d806 5a3d 16e8 e3bd d58c abbe
000001b0: 82a2 7e3d 383f 44be 4176 653d 1511 0dbd
000001c0: a911 5fbd 68d0 14be a0ae f8bd ae1b ffbd
000001d0: 56b2 59be 38b1 1c3e e1f3 3b3e 9814 acbd
000001e0: f64e cebd b35b 153e fbc9 353e eb25 bbbd
000001f0: bc20 bc3c 4c36 51bd 2cc4 bfbc e6c7 0a3c
00000200: e815 ae3d 059a bb3b 4f99 ed3d 1076 c73d
00000210: 224e 913c 4331 ae3d bacc 073e 955f 6c3d
00000220: 501f e83d 7fa1 a0bd cfbd 58be 62a6 b73d
00000230: 035c 903d 4b1d 3e3e 2732 35bd f340 9abe
00000240: 6bfe 1abd 3443 22bd b315 453e 672e a83d
00000250: e6be 39bd 7f5f 523e 55f1 35bd 0ff0 14bd
00000260: 70de bd3d c5a9 ee3d 236a 233c 7cc9 8fbd
00000270: 753a 783d fbd0 70be 5edc 8b3b 93b2 0f3c
00000280: e2a5 ec3d cf8c 97bd 8b42 b03c c24e 9bbb
00000290: 54cb dabd 0311 3e3d 12eb ae3d e943 08be
000002a0: c1ea 45bd 6d25 6bbd 6099 193c 6077 403d
000002b0: 9909 02be d6ca 16be 3c91 8c3d eb36 9dbc
000002c0: 1540 483e fac5 993d 54a3 c93d 28e8 193d
000002d0: 55ee 723d 9ebb d73d 876d bc3a 5f91 af3d
000002e0: a713 46ba 6f8a 2d3d 4c7c a4bc 063b ef3d
000002f0: aa74 64bd 211e 873c 718e 38bc 90d0 d33d
00000300: 6603 96bd 3aee f2bd 9fd0 ed3c e788 db3c
00000310: 8d1c 043e 3b62 bd3d 2aa4 febd 4bc3 92bd
00000320: 7fbe ee3d 505a bbbc 2e1b bdbb b6a6 723e
00000330: 9fd6 13be 10fc d93d f454 41bd 05af 9a3b
00000340: 7dad d03d 16fe 54ba a2bf 8d3d 35fc 13bc
00000350: 5bd6 1e3e 3d0b 35be 1c80 36be eea7 c83d
00000360: 4b9a 983d e1c1 753d 1317 28be e80c 673e
00000370: b47c 6d3d d217 b73c 2526 3a3d 77c5 d33d
00000380: 2917 c5b9 5bd9 213d 49fd adbd b2ae 93bd
00000390: 668b db3d ceb7 16be 5eb4 283b a240 593b
000003a0: 4850 e6bd ea5b 8e3c 0ad2 2f3b f156 0dbd
000003b0: 4883 e03d f638 d7bd 1c18 073d 8c29 5e3e
000003c0: 4977 d1bd fce2 dc3d ded6 efbd e15b a33c
000003d0: 10a9 f8bd 19cc 813d 976b 1b3d 8b0e 4d3c
000003e0: c005 063e ed87 cfbd db96 acbd 7ae2 acbc
000003f0: 5ae2 5e3c ef17 553d 7732 023e 8b48 8cbd
0.085961714 0.028181639 -0.01912374 -0.03640927 -0.08663958 0.011242191 0.103753686 0.059021834
-0.06380921 0.08517009 -0.028107345 -0.11743284 0.056943167 -0.075899236 0.06268796 -0.02659509
-0.027469652 0.02215817 -0.17612375 -0.09533503 0.029646948 0.102976516 0.10840102 -0.041968964
0.06735244 0.024747178 0.0009607299 -0.25915143 -0.024989143 -0.0959218 0.024498578 -0.06371386
0.05231582 -0.061887328 0.1571412 0.09741317 0.1218173 0.017829001 0.026320538 -0.022071032
0.10087428 -0.051634554 0.015566332 0.021508347 -0.0058413283 0.18173334 -0.14723645 -0.18635915
-0.076265536 -0.05517954 0.2189309 0.13113078 0.060811862 -0.0495574 -0.09437854 0.12079065
0.038601305 0.112154745 -0.04423885 -0.047395304 0.018805258 -0.08627014 0.04751603 0.009357044
0.03687678 -0.10725651 -0.06002845 0.022489605 0.07527886 -0.1121326 0.06599438 0.0307282
0.016132075 0.01874202 -0.14939666 -0.07303617 -0.10779399 -0.13088824 0.0034896717 0.06350599
0.0047132922 0.09826019 0.022855427 0.039144747 -0.022224756 0.1322673 0.052114673 -0.06146831
0.0020740908 -0.0652647 -0.13273107 0.03836998 -0.18315881 -0.0131434295 0.07993732 -0.016977347
0.19978191 0.08592764 -0.11095111 -0.1834901 -0.023551287 -0.16050172 0.068218224 0.1339168
-0.05427735 0.053229183 -0.11128251 -0.33505884 0.0621667 -0.19164741 0.05602098 -0.03444012
-0.0544602 -0.14532626 -0.12142682 -0.12456451 -0.21259436 0.15301979 0.18354751 -0.084023654
-0.10073654 0.14585762 0.1775283 -0.09138092 0.022964828 -0.051077172 -0.023408972 0.008470511
0.08500272 0.0057251477 0.11601507 0.097393155 0.017737452 0.0850549 0.1326169 0.05770834
0.113340974 -0.07843303 -0.21166156 0.08967282 0.070488 0.18565862 -0.044237282 -0.30127677
-0.037840288 -0.03961487 0.19246559 0.082119755 -0.04534807 0.20544241 -0.044419605 -0.03636175
0.09270942 0.11653475 0.009974035 -0.07020852 0.060602624 -0.2351722 0.004268213 0.008770603
0.11555077 -0.07399904 0.021516105 -0.0047396133 -0.10683313 0.046402942 0.0854093 -0.13307156
-0.048319582 -0.05740874 0.009374946 0.046988845 -0.12698974 -0.14725813 0.06863639 -0.019191226
0.19555695 0.07508464 0.098456055 0.037574917 0.059309322 0.10533832 0.0014375903 0.08572649
-0.0007556029 0.04236835 -0.0200788 0.1168118 -0.055775322 0.016493859 -0.011264429 0.103425145
-0.07324867 -0.11861844 0.029030142 0.026798679 0.12901516 0.092472516 -0.124336556 -0.071661554
0.11657428 -0.022870213 -0.0057710623 0.23696408 -0.1443734 0.1064378 -0.04720016 0.004720571
0.1018934 -0.000812502 0.06921317 -0.009032299 0.15511458 -0.17680068 -0.17822307 0.09797655
0.07451304 0.05999935 -0.16415052 0.22563517 0.057980254 0.022350226 0.045446534 0.10340398
-0.00037592024 0.039513927 -0.08495576 -0.07211055 0.107199475 -0.14718553 0.0025742273 0.0033150096
-0.11245781 0.017377812 0.0026828074 -0.034506742 0.1096254 -0.10508911 0.032981977 0.21695536
-0.1022783 0.10785481 -0.117109045 0.019941272 -0.12141621 0.06337757 0.037944403 0.012515674
0.13088131 -0.10133348 -0.08427211 -0.021104086 0.013603771 0.052024778 0.12714563 -0.06849774

transformer.h.0.attn.c_attn.bias f4 [96]
00000000: e308 e7be 6492 afbd d21c 26be faaa 63be
00000010: 41a5 0abf ef5c d73d 0d20 03bf eb1b 6dbd
00000020: 2fae a5bd fda2 1e3e 5ca6 6abd 201a 273d
00000030: 92fe 39be 11c7 13bf 4460 b03e 6416 243f
00000040: b203 b73e db24 173e 3d2e 59be f21a a5be
00000050: b680 1d3c 758e 3fbd 77a9 6b3e a136 d4be
00000060: 86ec 8d3e 9728 efbd ee63 273d 6452 eebd
00000070: 1114 10bf 7c45 32bf 4cb4 ebbe 2b39 6d3e
00000080: 6e05 2ebc 900e 0e3c e7a1 a3bb f7b7 2dbb
00000090: ea0b f4ba f254 cf3b ced0 3b3c 0abf ce3b
000000a0: 2cf6 1f3b e696 22ba 3dfd b338 eee1 5bbb
000000b0: b19e c33a 1ad5 bb3a afee 7f39 3984 5abb
000000c0: 11ff 93ba 2181 363b 1784 1e3b 9f9f 943a
000000d0: 86d1 6a3b b4ec 29bb f867 bb3a 6bd6 10bb
000000e0: 5d32 95bb 61eb 81bb 09b9 ddbb c859 1fbb
000000f0: fb4c 9cba 7faf 043a 4ab5 5839 a402 5cbb
00000100: 9fc2 873c cb81 03bd a4ad 45bd 89fd 86bc
00000110: f4cb f3bc 9f95 853d f628 fd3c 309c cc3c
00000120: b3b1 dd3b e392 d1bc 50d9 233c d8a3 66bd
00000130: b901 babc 7b95 ecbc e02e 0fbc 54aa 06bd
00000140: 451a 9c3d 2b01 4e3b c0f1 28bd 312e 1fbd
00000150: 6bd9 96bc 4d23 36bd cd26 6a3d bff7 8dbc
00000160: 19b8 00bc fa3f 813c 7cda 023c a1cc 323d
00000170: c0da 4538 1c1c 79bc fb25 d5bb 7e89 0e3d
-0.45123968 -0.08572844 -0.16221932 -0.22233191 -0.5415841 0.105157726 -0.5122078 -0.057887953
-0.080898635 0.15491863 -0.05728756 0.0407964 -0.18163517 -0.57725626 0.34448445 0.64096665
0.35745007 0.14760153 -0.21209045 -0.3224712 0.009613207 -0.046766717 0.23013864 -0.4144793
0.27719516 -0.11677664 0.040866785 -0.116368085 -0.5628062 -0.69637275 -0.46035993 0.23166339
-0.010621412 0.008670464 -0.0049936655 -0.0026507357 -0.0018619273 0.006327265 0.011463357 0.0063093947
0.0024408204 -0.0006202295 8.5825544e-05 -0.0033551413 0.0014924613 0.0014330477 0.00024407612 -0.003334297
-0.0011291226 0.0027847963 0.0024187618 0.0011339075 0.0035830452 -0.002592844 0.0014297953 -0.002210046
-0.004553123 -0.003964827 -0.0067664427 -0.0024314988 -0.0011924797 0.00050615513 0.000206669 -0.003357091
0.016572295 -0.032106202 -0.0482613 -0.016478317 -0.029760338 0.065226786 0.03090332 0.02497682
0.006765568 -0.025582736 0.010000542 -0.056308597 -0.0227059 -0.028879872 -0.008739203 -0.03287728
0.07622198 0.0031433802 -0.041246176 -0.03886241 -0.01841422 -0.04446726 0.05716591 -0.017330049
-0.007856392 0.015777577 0.007986661 0.04365218 4.7172187e-05 -0.015204456 -0.0065047718 0.03479909

transformer.h.0.attn.c_proj.weight f4 [32, 32]
00000000: 8ea0 7cbd 329c d0bd d67d e03c a0e8 c93b
00000010: 6d27 a1bd f6b2 a8bd 9124 e43d 52b4 28ba
00000020: 3146 2f3d cb99 8c3d b450 7fbb 4d28 a6bc
00000030: a47e c3bc feb7 4f3d 11ca 2abd 027a 273d
00000040: b91b 8abd 07ab 9bbd 27cc 93bb 9243 063d
00000050: 4ec9 9cbc 6ef9 6dbd 1519 5c3d 592c ad3d
00000060: 2a55 bebd 4882 af3c ca19 ffbc 8409 f4bd
00000070: 757a 823d ef17 b5bc 918c f4bc cd16 0bbd
00000080: 3413 eb3c 65f7 e83b cb07 12bd cf77 2e3d
00000090: b0cb 3bbd cb6d da3d 56fe 6d3c d071 f23c
000000a0: 372f 9c3d c35f cf3d ce1a c3bd 1112 9bbd
000000b0: 8164 ecbd 0860 27bd a5f8 063e fdfa 0f3c
000000c0: e0c1 eabc 5eb0 c73d 083f 89ba 7094 57bc
000000d0: e2a9 613d 5b81 8ebd 08d6 9dbc 290b f6bd
000000e0: cd7e 2abe b49a a13d 974f 3b3d 2646 df3d
000000f0: a4f7 3fbe 4d1a 13bd b9ee c4bc 1d1d 2bbd
00000100: e3e4 113c 2090 523d 7a6a 063d fc53 983d
00000110: 6317 00be 7cde a23d 8d73 76bd f6c7 153b
00000120: 5771 3f3d cba1 593d dbe4 d1bd 6086 4bbc
00000130: 308c 92bd 9005 053e a832 9b3d 05ec 53bc
00000140: b7eb 6a3d 0967 b83d e590 34bc fd98 cbbd
00000150: ba5e 83bc 5277 e5bd 11b5 ce3c e2fb 173c
00000160: 87cb 99bd 6143 b63d f303 4b3d c983 083d
00000170: e763 233d e912 60bd 2561 0d3d b619 4dbd
00000180: cf24 de3c 87fe 60bc dca0 94bd 5353 573c
00000190: 0f1f 833c b7db 253d 76e3 3a3d 93f7 7c3d
000001a0: 121d 6bbe 129f 523c a6a9 f93d e338 2abc
000001b0: dc17 94bc 2e3e 94bd b956 7dbc f570 e43b
000001c0: 3d38 e63c 7be4 813d eff6 383c 67e2 ad3c
000001d0: 258c a83d 4692 3ebb cf71 163d 2ecb 9bbd
000001e0: a52e 4bbc 9994 373e 56d8 1c3e d15d 3c3d
000001f0: 47df b9bd eddc 18bd fa37 2b3d 3858 11bc
00000200: d414 03bd 7f59 00bb a83b debd 9e7e 023e
00000210: 2703 a9bd 0c6c d83c e954 dbbd eee7 81bc
00000220: aa3e 613c 6931 603c 8810 ef3b d4ab a83c
00000230: 2f4c 323d 3881 d13c 66de 8a3c c95f f33c
00000240: 08e6 0cbe 1d48 203c 984b 04bd a927 25be
00000250: 64da 963c 12a0 cd3d cb42 5dbd fb1a 92bd
00000260: 2688 b0bb a8e6 843d da4f 57bd 5706 27bc
00000270: d3f7 9ebd 4dff 2dbd 1adc 6a3d f6e6 c73d
00000280: 20e0 1bbc adda c5bc 6c57 033e 60cc cebd
00000290: e85f 3b3d af58 c2bc 7319 7c3d e814 46bd
000002a0: 4324 4c3c 8f22 943d 6f58 1b3d ade8 acbd
000002b0: fcca cabd 8449 febd bd9d 123e 8a8b 003e
000002c0: 9fb1 c13d f9fd 13bd a87b 8dbd 8453 aa3c
000002d0: 5a93 2a3d b82e 94bc 23a4 fa3d e655 793c
000002e0: 32d1 b73d 2a9a c8bc e1a6 72bd 7bb6 0cbe
000002f0: 3eb4 8c3c 8bdd df3d d4c1 e03a 9a94 be3c
00000300: aae2 173d a1ad d2bc 87b0 bc3b 75f3 41bb
00000310: abdd 223c 68a1 b23c 0bb9 18bd 69a8 b23c
00000320: cfd8 c03d 27a2 3cbd 67c5 5dbd 6913 8b3d
00000330: 047f b03c 906c 43bd 9675 b8bc 6aa3 413d
00000340: 5531 cdbd d6da d0bd 3041 cfbc 7d24 8c3c
00000350: 8347 353d e647 1d3d 75c0 e23d 7009 a23d
00000360: 35cd 773d e369 06bd e3cb 6ebd 8631 6ebd
00000370: 0a7c 42bd 238b 2c3d fb44 ecbd c0a8 c33d
00000380: df66 1a3b 2aba 85bc ffe0 d73c d851 7f3c
00000390: 02f0 b13c a984 a7bb 30e7 15be 3b1c ffbc
000003a0: f066 193e 2e32 833c eb9a 0bbd 9fdb d33c
000003b0: 953a 90bd 02a9 d43d ec0c c9bc caf8 9ebd
000003c0: bab5 acbd 8e92 073d d2e7 c73d e4e2 c63d
000003d0: 026c b0bd b53b 8d3c 4aee 393c 4d8b 24bd
000003e0: 0b08 523c 5489 0cbe 5ae3 04be 17a6 ad3b
000003f0: f360 173e fd3d 803d 8ea9 0fbe 6ecc a93d
-0.061676554 -0.10186042 0.027403753 0.0061617643 -0.07868848 -0.08237259 0.11139787 -0.0006435561
0.04279155 0.06865271 -0.0038958015 -0.020282889 -0.023864098 0.050712578 -0.04169661 0.04088784
-0.06743569 -0.0760098 -0.004510421 0.032779284 -0.019138958 -0.058099203 0.053734858 0.08455724
-0.092935875 0.021424428 -0.031140227 -0.119158775 0.06371013 -0.022106139 -0.029852184 -0.03395729
0.02869568 0.00710957 -0.035651963 0.042594727 -0.04584855 0.106654726 0.01452597 0.029595286
0.07626193 0.10125687 -0.09526597 -0.07571805 -0.11542607 -0.040863067 0.13180788 0.008787868
-0.0286569 0.09750436 -0.0010471055 -0.013157949 0.055093654 -0.06958266 -0.019267097 -0.120138474
-0.16649933 0.078908354 0.0457302 0.10902052 -0.18746811 -0.035913754 -0.024039613 -0.04177581
0.0089046685 0.05140698 0.032816388 0.07437894 -0.12508921 0.07952592 -0.06016879 0.0022854782
0.04673895 0.053132813 -0.10248729 -0.012422174 -0.07155645 0.12990403 0.07578021 -0.012934689
0.0573537 0.090040274 -0.011020874 -0.099412896 -0.01603638 -0.11204399 0.025232824 0.009276362
-0.07509523 0.0889957 0.049564313 0.033328805 0.039890196 -0.054705534 0.034516472 -0.050073348
0.027117161 -0.013732559 -0.07257244 0.013142425 0.01600602 0.04049274 0.04562708 0.061759543
-0.22960308 0.012855308 0.12190561 -0.010389539 -0.018077783 -0.07238422 -0.015462571 0.0069714733
0.028102988 0.06342407 0.011289342 0.021226121 0.082298554 -0.0029078885 0.03672963 -0.07607113
-0.012401258 0.1792778 0.153169 0.045987908 -0.0907579 -0.037320066 0.04180143 -0.008871131
-0.032002285 -0.0019584594 -0.10851222 0.12743613 -0.082525544 0.026418708 -0.10709555 -0.015857663
0.01374785 0.013683655 0.007295672 0.020589747 0.043529686 0.025574312 0.016951751 0.02970876
-0.13759625 0.009782818 -0.032298654 -0.1612841 0.018414684 0.100402966 -0.054018777 -0.07134052
-0.005387324 0.06489307 -0.052566387 -0.010194383 -0.077621125 -0.042479802 0.05733881 0.09760849
-0.009513885 -0.024152124 0.12826318 -0.10097575 0.04574576 -0.023723928 0.061547708 -0.04835978
0.012459817 0.07233154 0.037926134 -0.08442817 -0.099019974 -0.12416366 0.14317985 0.1255323
0.09457707 -0.03613088 -0.06908351 0.020791776 0.04164443 -0.018088683 0.12238338 0.015218234
0.08975448 -0.024487574 -0.05924118 -0.13741486 0.01717579 0.10930928 0.0017147609 0.023264218
0.037081398 -0.025717558 0.0057583484 -0.0029594575 0.009940545 0.02180548 -0.037285846 0.02180882
0.09416353 -0.046053078 -0.054143336 0.067908116 0.02154494 -0.047710955 -0.022517007 0.047274984
-0.10019175 -0.1019799 -0.025299639 0.017107243 0.044257652 0.038398646 0.110718645 0.07911956
0.060498435 -0.032815825 -0.05829991 -0.058152698 -0.047481574 0.04212488 -0.115365945 0.09553671
0.002355985 -0.016324122 0.026352404 0.015583478 0.02172089 -0.00511225 -0.14638972 -0.031141391
0.14980674 0.016015138 -0.03408329 0.02586156 -0.07042424 0.10383798 -0.024542294 -0.077622965
-0.08433099 0.03309875 0.09761013 0.09711245 -0.08614351 0.017240385 0.011348316 -0.04017191
0.0128193 -0.13724262 -0.12977353 0.0052993405 0.14783077 0.06261823 -0.14029524 0.08290945

transformer.h.0.attn.c_proj.bias f4 [32]
00000000: 1a81 e8bc 7e90 e4bd d644 eb3d 6484 1bbd
00000010: 6d87 aabb 7027 ae3c 4032 2abd 0cf6 343d
00000020: 46f9 2c3c 8b6d 283d 700f a23b efea 2dbd
00000030: 38e9 cabd 526d 82bb 1b96 c6bd 6997 b93c
00000040: ef7e 923d 5ba4 14bd a1bb 0bbd b529 8aba
00000050: 025d 58bd ff30 8cbc e8f7 b63c bfa4 083c
00000060: 4d73 753d e542 44bd 6694 933b 3208 00bd
00000070: 7460 ccba b633 933d 04f0 0dbd 5a6b 8dbc
-0.028381873 -0.11160372 0.11487739 -0.037968054 -0.0052041323 0.02125904 -0.04155183 0.04417996
0.010557478 0.041120093 0.004945688 -0.04246038 -0.09907764 -0.003980317 -0.09696599 0.022655206
0.07153117 -0.036289554 -0.034114484 -0.0010540994 -0.052823074 -0.017113207 0.022335008 0.00834006
0.059924413 -0.047915358 0.0045037745 -0.031257816 -0.001559271 0.071875975 -0.034652725 -0.017263103

transformer.h.0.ln_2.weight f4 [32]
00000000: 18fa db3f 0428 bc3f 1690 df3f 43a1 bb3f
00000010: c173 d53f 7313 ca3f dd37 c83f 8760 cc3f
00000020: f716 d23f 49f9 bc3f 815d c33f 3e35 b53f
00000030: 69b1 b83f e465 c23f 0f33 e23f fb62 c53f
00000040: 6bcf c03f 86dd c63f 84b8 cb3f f2d5 c03f
00000050: 8727 c03f 5e2e d23f 67aa c93f 1ea2 c83f
00000060: b438 d73f a66f d43f 29c3 d53f f2c9 e03f
00000070: 9076 c43f d306 e73f 5845 d33f aff5 b83f
1.7185698 1.4699712 1.7465847 1.4658588 1.667595 1.5787185 1.5642048 1.5966958
1.6413258 1.4763576 1.526291 1.4156873 1.4429141 1.5187345 1.7671832 1.5420831
1.5063299 1.5536354 1.5915685 1.5065291 1.5012063 1.64204 1.5755128 1.5674474
1.681418 1.6596572 1.6700183 1.7561629 1.5348682 1.8048958 1.6505537 1.4449977

transformer.h.0.ln_2.bias f4 [32]
00000000: 1595 8ebd c005 98bd f86c 8d3e 673e 9abd
00000010: 6c6e 493d 3f81 f0bd 0f98 b93d c17f 14be
00000020: de06 a7bd 5745 8c3e 8aed 6bbd 748d 1a3e
00000030: 76f3 8ebd 14d1 653e c23e 933d c5e7 94bd
00000040: 8812 5d3e 9c98 c03d f6d5 533d 95b3 513d
00000050: 8e38 10be 9f29 5b3d 5f68 86be f42b b8bd
00000060: 1dad bcbc b2ce 47be 91c4 06be 6f68 213e
00000070: 042d e63d da1b f5bc 8fc3 10be 7ed4 32be
-0.06962029 -0.07422972 0.276222 -0.075314336 0.049177572 -0.11743402 0.09062206 -0.14501859
-0.08155607 0.27396652 -0.05759958 0.15093023 -0.0698003 0.22443038 0.071897045 -0.07270769
0.215891 0.09404108 0.05171772 0.051196653 -0.14084074 0.05350649 -0.26251504 -0.089927584
-0.023031766 -0.19512442 -0.13160922 0.15762495 0.11239055 -0.029920507 -0.141371 -0.17463872

transformer.h.0.mlp.c_fc.weight f4 [32, 128]
00000000: 92dc 98bc 237b 0ebc 3870 5bbd 2691 ff3d
00000010: c1a3 fb3d abd6 533e 74e2 543b 9902 89bd
00000020: ece2 2f3d 6f71 cf3c d5db 7a3d cd6a e53d
00000030: 0710 0c3d ca1c 12bd c541 8b3d cf44 793c
00000040: 2262 b7bd f97e fdbc 5470 4b3d 3b75 953d
00000050: d843 a4bb 72ac 573d 56b1 553e a407 093d
00000060: a4f0 79bd 762f f5bd 5555 1dbb 6f22 2e3b
00000070: 402b b03d 93e8 8e3e 4038 4a3d 8955 0a3e
00000080: 82fb 90bd ca31 8bbc 8512 17bd f536 88bc
00000090: ad12 a53d 8e93 febb 95a2 443d 71b3 5ebd
000000a0: b6e9 8a3e 0f1b b8bd 2633 f8bd 5743 91bc
000000b0: 6b5b ac3d a039 993c 4a3f 2d3c fe48 543e
000000c0: 78f8 95bc 1bcd 9dbd 3721 2a3d ad61 a53d
000000d0: ac1a dd3c 56c7 5abe 4740 fabc 09c0 debc
000000e0: 5675 b2bd 804f 09bd a474 c93d 13db b93d
000000f0: bd26 af3c f341 b0bd a2be 6c3d 9611 babd
00000100: 7e64 d4bd aab6 fd3c c090 9a3d f9c7 5ebd
00000110: d704 bbbe b7df 7dbe e8ef 46bd 8304 e7bc
00000120: 8648 f9bc a90c 093e c0ab f2bc ab40 51bd
00000130: cbfc 1fbc 7188 d2bd 1bef 24bc 76fb 6dbd
00000140: 455e 2e3b acb4 113e ead2 a23d cae4 023e
00000150: 0c0a 6e3d 8a4b 5dbc a2c2 42bd ce3c acbd
00000160: d9b0 513d f840 bb3c 03c8 a33c 7cdc 2dbd
00000170: 1c88 8fbc 68b5 ac3d 10c0 01bd d1c0 82be
00000180: 8487 7b3d 6654 fcbc b4ec 923d 18a8 a6bd
00000190: 233a e03d 5f6a 80bd 3cb2 003e 0ec2 e13c
000001a0: 4e9f cd3d 3022 683d c169 6b3e 8467 033d
000001b0: e93f 213d 23c4 893c 4219 40bd 27e5 043e
000001c0: 6040 00be baa3 96bd 33fc 00be ea90 6dbe
000001d0: e7d2 c03d 2fbe fe3d bae0 be3d edec 0abd
000001e0: 4c8a 953e 2c58 823d f9af c2bb d775 513c
000001f0: 77c2 07bd b474 d23d b5cd a9bc b5a5 99bc
00000200: 3e2c 10bd ba41 d03d 533a 48bd f090 523c
00000210: a52d 9b3d 2022 133e 2272 1fbe a0ad b03c
00000220: 19f0 463d 52a2 ba3c 54a4 133e 5435 183d
00000230: 0d5b e73c 4816 073e fa9a 123d 0049 d13a
00000240: 6eb8 54bd db8c 873c 8421 033e ad57 5a3e
00000250: 9cb7 313d d702 8abd d7d2 cf3d ef19 d6bc
00000260: a23b 863c c8d8 72bc 753d 18bc be76 bdbd
00000270: 4fac f93d 5bbe d13d e179 95bd 62c6 bbbc
00000280: 15a4 e23d 31d9 a7bd dab1 803d ba88 16bd
00000290: 8c49 80bd 795a 163e d3a4 393e cfe0 b93c
000002a0: d802 0e3d 4d73 58bc 3787 233d 6382 203c
000002b0: 5cb1 92bc 7a5f 4a3d 0df0 8e3c 45db 1dbd
000002c0: fe3b cebc bde6 9abd fcd5 183d 2496 f8bb
000002d0: e89a fa3c 8043 bcbd 760d c13b d8cb 573e
000002e0: 75c2 d63c 73c7 6fbd 4040 42bd 2d2f e9bd
000002f0: 2406 403e f10f 0939 d350 e2bb 2ceb ad3c
00000300: d9b1 423d 74fb b2bd e2a9 943e 28a8 a6bd
00000310: 8ad8 37bd d359 22bd 815e 0d3d 92ed 643b
00000320: e01d d2bc 853e 1a3e 8c1e f8bb f390 f33d
00000330: b715 db3d 9f29 e4bd bc53 0a3e 2a4c 693d
00000340: 5c00 413e f5fd 68bc ad87 af3d b05c 1a3c
00000350: d101 c03c 6d66 09bd 1bfc 4b3e 9460 993d
00000360: 1b6c 2ebd 9d10 853d 5359 903c 8fe4 013c
00000370: 5fb4 093d b99a cb3d a298 3bbd b0ce 93bd
00000380: 5e37 2b3d f33f 623d d699 cbbb a4d5 5c3c
00000390: 0ed1 413d f34c bf3d 71ac 2b3e e8b5 493e
000003a0: 3a30 173e 98d3 85bd 8c33 3d3e 1d95 1dbd
000003b0: 68e6 04bc 5615 f53c 313e 163d 2fb6 153d
000003c0: a4d2 8cbd b5a9 e23c 0902 193c 89e7 043b
000003d0: 1a71 aa3c 846d a73d ecfe 28bd fa80 4a3d
000003e0: ac1a e53b bbb0 8e3d 7afe 86bd bd81 b73d
000003f0: 95e3 d0bd e250 b9bd 9c47 ff3d 0dbc 643d
-0.018659864 -0.00869635 -0.053573817 0.12478857 0.12287093 0.20687358 0.003248361 -0.066899486
0.04294102 0.025322644 0.061244804 0.11202011 0.034194972 -0.035671987 0.06799654 0.015214159
-0.08954264 -0.030944334 0.04966767 0.072977506 -0.0050129704 0.05265469 0.2086843 0.033454552
-0.06102051 -0.11971943 -0.002400716 0.0026570817 0.08601999 0.27911815 0.04937005 0.13509192
-0.07079221 -0.016991515 -0.036882896 -0.016627768 0.08060203 -0.0077690547 0.048006613 -0.054370347
0.27131432 -0.08989536 -0.12119131 -0.017732305 0.08415874 0.018704236 0.010574171 0.2073097
-0.018306956 -0.077051364 0.041535582 0.08075271 0.026990257 -0.21365103 -0.030548228 -0.027191179
-0.08713786 -0.033523083 0.098367006 0.09074988 0.021380777 -0.08606329 0.05779899 -0.090853855
-0.1037073 0.03097089 0.0754714 -0.054389928 -0.3652713 -0.24792372 -0.048568636 -0.028200394
-0.03043009 0.13383736 -0.029622912 -0.051087063 -0.00976486 -0.102799304 -0.010066773 -0.05810114
0.0026606482 0.14229077 0.07950385 0.12782589 0.05811505 -0.013506779 -0.047548898 -0.08410035
0.051194046 0.022858128 0.019992834 -0.0424466 -0.017520957 0.08433038 -0.031677306 -0.25537732
0.061408535 -0.030801963 0.07174054 -0.0813753 0.10948589 -0.06270289 0.12567991 0.027558353
0.100401506 0.05667323 0.2298956 0.032081142 0.03936759 0.016817158 -0.046899088 0.1297804
-0.12524557 -0.07355447 -0.12596206 -0.23199812 0.094152264 0.124386184 0.09320207 -0.033917356
0.29207075 0.06364474 -0.0059413877 0.012784443 -0.03314444 0.102761656 -0.020727972 -0.018755773
-0.035198443 0.10168786 -0.048883747 0.012851939 0.075770654 0.14368486 -0.15570882 0.021567166
0.04856882 0.022782478 0.14418155 0.037160233 0.028241659 0.13192093 0.03579233 0.001596719
-0.0519337 0.016546657 0.12805754 0.21322508 0.043387994 -0.06738823 0.101476364 -0.026135413
0.016385857 -0.0148221925 -0.009291996 -0.09251164 0.121910684 0.102413855 -0.07298637 -0.022921745
0.110664524 -0.08195723 0.062839225 -0.036751486 -0.06264028 0.1468295 0.18129282 0.022690205
0.03467068 -0.013211084 0.039923873 0.009796712 -0.017906837 0.04940746 0.01744845 -0.03853919
-0.02517509 -0.07563541 0.037313446 -0.0075862575 0.030591443 -0.09192562 0.0058914972 0.21073854
0.026215771 -0.05853982 -0.047424555 -0.11385951 0.18752342 0.00013071277 -0.0069066077 0.021230303
0.04753289 -0.08739367 0.2903586 -0.08137542 -0.044884242 -0.039636444 0.034513954 0.0034931642
-0.025649011 0.15062912 -0.007572001 0.11892881 0.10697501 -0.11140751 0.13508505 0.0569574
0.18847793 -0.014220704 0.085708 0.0094215125 0.023438366 -0.033544946 0.1992039 0.07489124
-0.042583566 0.06497309 0.017620718 0.007928028 0.03361928 0.099416204 -0.04579986 -0.07217157
0.04180085 0.055236768 -0.006213407 0.01347867 0.04731851 0.09340849 0.16765 0.19698298
0.1476449 -0.06534499 0.18476695 -0.038472284 -0.008111574 0.0299174 0.036680404 0.036550697
-0.06876114 0.027668813 0.009338864 0.0020279607 0.020805884 0.08175185 -0.041258737 0.049439408
0.006991705 0.069673024 -0.06591506 0.089602925 -0.10199658 -0.0904863 0.1246483 0.0558434

transformer.h.0.mlp.c_fc.bias f4 [128]
00000000: 45cf d4bb 3dc7 87bc 3644 a73c aab2 afbe
00000010: 5eed 80bc d4ab c53d 99fe 53bd 3368 fe3c
00000020: b3ac ba3c 57bb 163d e9cf d7bd bb7c 82bd
00000030: 98f6 1a3c ff6f 513d 97ac 81bd f584 8d3d
00000040: 7300 b63d 1dee e7bd 536e 47ba f815 83bd
00000050: 2c75 c8bc 0673 77bd 6395 c2bd d85b 173d
00000060: fd00 31bc 9933 25bc edc8 6a3d 1a61 b13d
00000070: 02a8 48be 6b34 e83d bdab 93bd cced 91bd
00000080: e5e4 323d 1146 293d 536c 7c3d 9ac6 fd3c
00000090: 78ec 6abd 3aea f0bd 8a5c 35bd a984 81bc
000000a0: 066a 19be 43ae 003d 81bb 78bd 91a4 8139
000000b0: e75c c13d f2cb 11bc 7688 f7be 167c ec3b
000000c0: d899 c5bc e69d 983c 3882 093a 5865 5bbd
000000d0: 7bbb 393c ac40 a5bd fbbb 4e3d 1684 e8bc
000000e0: 2069 97bd 15ea 9f3c a2d1 433b c31c 3fbe
000000f0: d8c1 053c 0471 46bd bdb5 62bc 030e b0bd
00000100: 7b88 fbbc 6871 b73c 8b2c 0f3d 3907 583d
00000110: 0974 4ebd 6c6a fabd 1c78 8dbc 54cf 2b3d
00000120: dceb bdbc a6c8 273d 64dd 103e 9b07 893c
00000130: 53f7 05be 4460 b4bd 83fc 12bd a231 e23b
00000140: f090 b53a d943 3ebd 12d5 e7bc f7c1 a2bb
00000150: 4633 a43d 1482 03bd e153 bfbd 38b4 08bd
00000160: 0421 963d 929c f5bb fd08 c23c a494 02be
00000170: 6e86 c1bd 2f4b a73b 4d7e 293e 0fe8 afbd
00000180: 4507 073d dd26 b03c c9be a6bd 83f6 253c
00000190: 1142 6abd 2785 ba3a 4495 1bbb 5827 383d
000001a0: b989 c4bd f847 7dbd a598 a73c 1cce dfbb
000001b0: c1d7 013e 1788 aebd b853 8d3d 72d2 40be
000001c0: 402a 123d d9fc c6bd c7b5 1cbb 952f 85bd
000001d0: 86c7 abbd bd41 e43b 400d b73c b2da 25bc
000001e0: 6bcf 4dbe 053e f23b 3b7e 2dbd d50f e7bd
000001f0: fc1f 23bd 7430 733d d58a a53d d594 c2bd
-0.006494435 -0.016574496 0.020418268 -0.34315997 -0.015738185 0.09651914 -0.051756475 0.031055545
0.022787428 0.036799755 -0.105377026 -0.06371447 0.009458207 0.0511322 -0.06331747 0.06910125
0.088868044 -0.113247134 -0.0007607687 -0.064006746 -0.024469934 -0.06041243 -0.095011495 0.036952823
-0.010803458 -0.010083103 0.057320524 0.08661099 -0.1959534 0.11338123 -0.07210491 -0.07125434
0.043675322 0.041326586 0.061626744 0.03097849 -0.05735442 -0.11763425 -0.044277705 -0.015810328
-0.14981851 0.03141619 -0.060725693 0.0002472741 0.09441548 -0.008898722 -0.483463 0.0072169406
-0.02412121 0.01862998 0.00052455394 -0.053563446 0.011336203 -0.08068976 0.05047224 -0.028383296
-0.07393098 0.019520799 0.002987959 -0.18663315 0.008163892 -0.048447624 -0.013837275 -0.085964225
-0.030704727 0.022392944 0.03495459 0.052741263 -0.05040363 -0.122273296 -0.017269187 0.04194577
-0.023183756 0.040962838 0.14146954 0.01672726 -0.13082628 -0.08807424 -0.035885345 0.0069028893
0.0013852399 -0.046451423 -0.028299842 -0.00496697 0.08017592 -0.032106474 -0.093421705 -0.033374995
0.07330516 -0.0074954713 0.023685927 -0.12752014 -0.094494686 0.005105398 0.16552086 -0.085891835
0.032965917 0.021502906 -0.08141858 0.010129574 -0.057191912 0.0014230356 -0.0023740092 0.044959396
-0.09596581 -0.061836213 0.020458529 -0.00682999 0.1267996 -0.08522051 0.06900734 -0.18830279
0.035684824 -0.097161956 -0.0023912059 -0.06503216 -0.083876655 0.0069658444 0.022345185 -0.010122942
-0.20098655 0.007392647 -0.04235671 -0.112823166 -0.039825425 0.05937238 0.08083121 -0.09501044

transformer.h.0.mlp.c_proj.weight f4 [128, 32]
00000000: a7da 743b c828 96bc 2edb b2bd c572 6cbd
00000010: 9cf0 8bbd 478b 28bd 0dc1 153e 05f0 bd3d
00000020: 1bf2 51bd 7f00 a03d 9bfe fc3c c510 983d
00000030: 52cf eebc 532d 6a3d f9ef 4ebc eed8 82bd
00000040: cfae 453c d30c b7bb 826b 23bd 11d4 593d
00000050: bc2f af3c 533f 9cbd 9da5 763d d519 e43b
00000060: 2fea bfbc 0f94 e73c c733 87bd 2460 d4bd
00000070: fe7c 3abd 123e 453d 350f a93c 2d21 bb3d
00000080: e7d3 343b 1f54 d43c 8268 b73d c375 b7bc
00000090: 89c3 53bd f17a 903d 9b90 96bd 08fd 72bc
000000a0: a193 c7bd 72ed 6c3d 5470 e43c dd90 88bd
000000b0: ac69 97bd 8296 363a d83d 8d3d bd00 4dbd
000000c0: b18d 393d 988b 753b e8dd b8bd 6b91 29bb
000000d0: e39a 233d c386 9ebd 64c2 f9bb 57be c2bc
000000e0: 7eac 0b3d 7b49 c43c 0fc3 a0bc 1a07 8abd
000000f0: afdc 1dbb 1bf3 d3bc 5843 603d 61de 893d
00000100: 3285 92bd cd56 aebd 8be3 85bc 9b83 863d
00000110: e059 523d 7c0e 93bd 2fa7 0b3d 7483 143d
00000120: 342a bd3c 3f67 f4bc 20df c83c 285a 5b3d
00000130: c060 34bd f060 0cbd 1ecf 2cbd 12c1 563d
00000140: 94b2 54bd 1b65 e03c 4b06 11bd 4201 b1bc
00000150: 23a1 b53b 9f56 073e 416a 523c 9d0d d23b
00000160: cbb7 2a3d 2bd9 8bbd cd76 753d 2cfe dcbc
00000170: 80dd 1bbb 13e4 14bd 50c9 2d3c 6e3f 6c3c
00000180: c498 103e 46a4 523d 6022 28be c8a0 283d
00000190: 8c5e b23c 9af7 51bd f1c1 17bd 4623 a23c
000001a0: b560 033c c7cd e93d d470 b7bb 4661 e23d
000001b0: 4c82 2abd 59d2 7fbc 3212 97be 24e6 883d
000001c0: 8ff0 87bc 334c c73c f473 14be c485 093e
000001d0: 8381 f03b f6ff dcbd e646 713d 9b70 c8ba
000001e0: af22 833b aa7d 253e 047d 1e3d 995c 7dbd
000001f0: ba40 e4bc 8e49 e73c 7ecc b73b de78 093d
00000200: d098 06bc a491 1d3c 55ad e8bc f4df b1bd
00000210: cbd2 3bbc 13b4 08bd a440 6e3d 933a 003d
00000220: 642e 2d3d 9665 9e3d b1e7 06bd 791b cb3c
00000230: 7eff b2bd 1937 32bc 3425 f93c 0f7c 89bd
00000240: 6e9b 813c 6ada d9bd a02e 23bd 80c7 403d
00000250: f968 183e a112 053c ccca 6ebc d233 31bb
00000260: 5250 6f3d 9c46 7a3b 88fb febd d409 39bc
00000270: 09aa 0fba e31f 1eba 9c06 5e3d d065 2c3b
00000280: 4ed8 0e3d cdf6 c5bd 498e cb3c 313f 87bc
00000290: 6814 cd3b 0c92 a53d 07b1 ebbc 28d0 083d
000002a0: 58a6 3cbc a468 78bd 080a bebc 7df2 9e3c
000002b0: 9358 bb3d 42a5 e2bd a6cd 9dbc 62c1 ad3d
000002c0: 7ae6 75bd 0671 023d 1319 863d 4ec3 46bc
000002d0: c54b 49bc 4420 1b3d 3fd4 313d 3d7e 22bd
000002e0: 9676 0dbd e812 a63d 1e62 c43d 86b8 bf3b
000002f0: ce43 c8bc 8ae4 653d aa10 39bd be23 8ebd
00000300: fb9c 06bb a520 b73d cabc f3bc 426c 12be
00000310: 1d8a 373b 8be2 21bd 8d6f 16bd ca8c 17bd
00000320: f006 2e3e 55e3 5a3d a1b5 723d f9e0 08ba
00000330: ad80 91bd ced7 813d 216c 8b3d 9094 643c
00000340: 4219 5cbb 956c 94bd 9310 27bd 23d1 56bc
00000350: 2240 9cbb 9f2a 5a3d 4449 a9bc 8222 23bd
00000360: c8ea 3fbd f2b3 47bd 083e ec3c 187f 2cbd
00000370: d781 af37 43a5 743d 6d67 90bc f90f 673d
00000380: 5c21 41bd 6b96 4fbb 8b06 9d3d 3b7e a5bd
00000390: ea97 8cbd c9d6 8fbd e3ca 65bd dd02 0dbc
000003a0: 7745 0abd 1099 5fbb 3913 9bbc 0660 30bb
000003b0: f7d9 7dbd ecd1 88bc 84ce c8bb ae03 6a3d
000003c0: 203b 3e3d e639 d33c ce18 473c bb40 6f3d
000003d0: f958 24bc a99a 35bd 8179 693c 17bd 7dbc
000003e0: e2b3 acbc 4a2c 2ebd a115 a5bb 514e fa3b
000003f0: 4d77 363d 5902 403e 6037 4a3c d4c2 81bb
0.0037361772 -0.018329993 -0.087332115 -0.05772664 -0.06833002 -0.04114845 0.14624424 0.09274296
-0.05125628 0.078125946 0.030883124 0.074250735 -0.029151592 0.05717213 -0.012630456 -0.06389032
0.012065603 -0.0055862456 -0.03989745 0.053180758 0.021385066 -0.07629266 0.060216535 0.006961087
-0.023427097 0.028268842 -0.066016726 -0.103699 -0.045529358 0.048154898 0.020637134 0.09137187
0.0027592124 0.025919018 0.0895548 -0.02239502 -0.05170015 0.07054699 -0.073518 -0.014830835
-0.09744955 0.057843633 0.027885593 -0.066682555 -0.07393202 0.00069651764 0.068965614 -0.050049532
0.045301143 0.0037467238 -0.090267 -0.002587403 0.039942633 -0.077405475 -0.00762205 -0.023772402
0.03410005 0.02396082 -0.019624261 -0.06739636 -0.0024087837 -0.025872758 0.054751724 0.067318685
-0.07154311 -0.0851265 -0.016343853 0.065680705 0.051355243 -0.07180497 0.034094986 0.036258176
0.023091413 -0.029834388 0.024520457 0.053552777 -0.04403758 -0.034272134 -0.04218971 0.05243022
-0.051928118 0.02739196 -0.035406392 -0.021607045 0.0055428906 0.13216637 0.012842716 0.0064103142
0.041679185 -0.06828531 0.05992775 -0.026976667 -0.0023783147 -0.03635032 0.010607079 0.01441942
0.14120775 0.051426195 -0.16419363 0.041168958 0.0217736 -0.051261522 -0.03705019 0.01979221
0.008018662 0.11416202 -0.005598167 0.1105371 -0.041628167 -0.015614116 -0.2950607 0.06684521
-0.0165942 0.024328327 -0.14497358 0.13429934 0.0073396577 -0.10791008 0.058905505 -0.0015292348
0.0040019373 0.16161218 0.038693443 -0.061855886 -0.027862895 0.028233316 0.005609094 0.033562534
-0.008215144 0.009617243 -0.028402964 -0.08685294 -0.011463831 -0.033374857 0.058167115 0.03130586
0.04228057 0.0773422 -0.032935802 0.024793373 -0.087401375 -0.010877394 0.030413248 -0.067131154
0.015821185 -0.10637362 -0.039839387 0.047065258 0.14883794 0.008122117 -0.014574718 -0.0027038944
0.05842621 0.003818906 -0.124503195 -0.011293847 -0.00054803543 -0.0006031973 0.054205522 0.0026305802
0.034874253 -0.09666214 0.02484812 -0.016509624 0.006258536 0.08084497 -0.028770937 0.03340164
-0.011514269 -0.060646668 -0.023198143 0.019402737 0.091477536 -0.11066677 -0.0192631 0.084841505
-0.060034253 0.03184607 0.06547751 -0.012131525 -0.012286131 0.037872568 0.043415304 -0.03967117
-0.03453692 0.08109075 0.09589027 0.0058508543 -0.024446394 0.056126155 -0.045181908 -0.06940411
-0.0020540345 0.08941773 -0.029753108 -0.1429911 0.0028005906 -0.03952269 -0.036727477 -0.0369995
0.16994834 0.053439457 0.059255246 -0.0005221512 -0.07104621 0.063399896 0.06807733 0.013951436
-0.003358439 -0.07247273 -0.04078729 -0.0131113855 -0.0047683874 0.053263303 -0.020664819 -0.03982783
-0.046854764 -0.048755594 0.028838173 -0.042113394 2.0922087e-05 0.05972792 -0.017627442 0.056411717
-0.047150955 -0.003167535 0.076672636 -0.08080717 -0.06864913 -0.07023389 -0.05610169 -0.00860664
-0.033757653 -0.0034118332 -0.018930065 -0.0026912703 -0.061975446 -0.016701661 -0.006128134 0.057132415
0.046443105 0.025784444 0.01215191 0.05841134 -0.010030978 -0.04433695 0.01425016 -0.015486977
-0.021081869 -0.042522706 -0.0050379788 0.0076387306 0.044547368 0.18750896 0.012342304 -0.003959993

transformer.h.0.mlp.c_proj.bias f4 [32]
00000000: bf62 26bc 025e 0fbb ab17 133c a6c2 513b
00000010: 98a4 543c 00d4 813c 87ed eb3c faad c6bb
00000020: bb44 91bc 5cec 80bd 43de 193b eedc 03bd
00000030: 7da2 ee3c de2b 51bd a27c 073d d782 5b3d
00000040: 7589 14bc 0f3d c33c 482c ed3b edd4 e7bc
00000050: a292 09bb 7abb c2bb 700d 61bd 96fb e8bb
00000060: 1f47 58bc c2c7 ba3c 62e3 8c3b 1464 053d
00000070: e525 4abc d4ed 81bc f09e 86bc a1dc 753c
-0.010155379 -0.0021876101 0.008977811 0.0032006889 0.012978695 0.01584816 0.028799785 -0.00606322
-0.017732969 -0.06295082 0.0023478426 -0.032193117 0.029130215 -0.051067226 0.033077843 0.053591575
-0.009065975 0.023832826 0.0072379448 -0.028299773 -0.002099194 -0.005942759 -0.054944456 -0.0071100695
-0.01320055 0.02280033 0.004299567 0.032566145 -0.012338136 -0.015860476 -0.01643321 0.015006215

transformer.h.1.ln_1.weight f4 [32]
00000000: fb6f a73f a262 a43f b819 a33f 6629 a73f
00000010: e4a6 ae3f e3c1 a83f c0f3 a93f 56d5 a03f
00000020: a65d ad3f d407 a83f 6dd1 a13f 66b7 9e3f
00000030: c2a2 ac3f 0055 a33f 48ac ab3f 30bf b63f
00000040: d2e0 b03f 1966 a53f 8abd a03f 2edc 923f
00000050: 0456 bc3f c523 9d3f b156 ab3f bb30 b23f
00000060: d591 af3f 18f0 9f3f 9fb9 b93f 5ed7 ab3f
00000070: c515 b83f 416d b33f dcb9 af3f d0dd a93f
1.3081049 1.28426 1.2742224 1.3059509 1.3644681 1.318417 1.3277512 1.2565105
1.3544204 1.3127389 1.2642037 1.2399719 1.348717 1.2760315 1.3411951 1.4277096
1.381861 1.2921783 1.2557843 1.1473444 1.471375 1.2276541 1.3385831 1.3921121
1.371638 1.2495146 1.4509772 1.34251 1.4381644 1.4017717 1.3728595 1.3270817

transformer.h.1.ln_1.bias f4 [32]
00000000: 167d 29bd a0dc b0bc 7679 093e 2188 f33d
00000010: d31f d0bd 8bf1 1cbd 9dff 7c3c a283 023d
00000020: 6660 07be 5b11 0c3e d08b 81bd be8f 1f3e
00000030: dcd5 43bd d411 a03d 88de 52bb 5f96 e3bc
00000040: c604 8b3c 4205 013d 376a ab3d 6be0 72be
00000050: b74e 1abd 07fb 093e 9f59 403d f8fd ecbc
00000060: 0ee9 62be 21e0 c73c 53d2 d33d cc82 c23d
00000070: 6e0b 9bbc ee25 833d c1ce 9cbd 739c 90bc
-0.041379057 -0.021589577 0.1342524 0.11891199 -0.1016232 -0.03831629 0.015441802 0.031863816
-0.13220367 0.13678496 -0.06325495 0.15582177 -0.047811374 0.078159004 -0.0032176096 -0.027781663
0.01697005 0.031499155 0.08369868 -0.23718421 -0.037672725 0.13474666 0.04696047 -0.028929695
-0.22159216 0.024398865 0.103428505 0.09497604 -0.018926349 0.06403719 -0.07656623 -0.017652726
