training_outputs/counting/checkpoint-914100/pytorch_model.bin (torch, 427909 bytes, 29 tensors)

transformer.wte.weight f4 [40, 64]
000000 f9 3d db bc 79 59 8b bd 10 93 a1 3d de 32 b1 3d
       -0.02676295 -0.06804175 0.07889378 0.0865228
000010 6b 03 37 3d 78 e7 a5 bd 3a ed ce bd 1c b8 a0 bc
       0.044680994 -0.0810079 -0.10103841 -0.01961904
000020 79 92 e6 bd 23 cf a0 bd 8c 36 91 bd b8 4f 0b bd
       -0.11258406 -0.07852008 -0.07090482 -0.034011573
000030 7f 9d 8e bc 0b 93 ed 3d 57 b6 a8 be 74 f6 dc 3d
       -0.017409084 0.11600312 -0.32951614 0.10789195
000040 76 5b 9f bd 00 c4 dc bc e1 a1 73 bd 64 57 dc 3c
       -0.07781117 -0.026948929 -0.05948055 0.02689714
000050 c7 6a ed bc 42 1f b6 bc c0 32 85 3b ac 8f 24 bc
       -0.02898158 -0.022231702 0.0040648878 -0.01004402
000060 ab e2 6e 3d 06 52 ef 3c 0c 59 48 be ed 2f c2 bc
       0.058321636 0.029213917 -0.19565219 -0.023704493
000070 84 e6 4a bc 7e 49 40 3e c0 90 1e bd 51 82 90 3b
       -0.012384061 0.18778035 -0.038712263 0.004410066
000080 2b 78 84 3d 81 53 36 bc 80 4c ff bc e5 68 cf bc
       0.06468233 -0.011128307 -0.031164408 -0.025318572
000090 39 0d 5d bc d6 b5 e7 3e 78 6d cc be dd d3 9b 3b
       -0.013491922 0.45255917 -0.39927268 0.0047554807
0000a0 1b f8 c1 be 0d 96 06 3c 13 ef e6 bc b5 63 85 bd
       -0.37884602 0.008214486 -0.028190171 -0.06513158
0000b0 e4 50 85 3d 77 2b d4 3e 5b 9c 80 bd 9b 3d f7 bd
       0.06509569 0.4143941 -0.062798224 -0.12072297
0000c0 a8 61 dc 3e e2 e8 01 bf 96 68 09 bf 2d aa 27 be
       0.43043256 -0.50745976 -0.5367521 -0.1637351
0000d0 07 12 b2 bc e3 68 d9 3e 87 f1 cb 3a e4 9b d4 3b
       -0.021737112 0.42462835 0.0015559652 0.00648831
0000e0 e5 54 a8 bd f5 1e b5 3b d5 66 10 3e cf 1a 2a 3e
       -0.08219317 0.005527372 0.14101727 0.16611789
0000f0 da 75 2a be 5f cc 62 bd bd 29 68 bb 3a 3a 12 3f
       -0.1664652 -0.055370685 -0.0035425269 0.57120097
000100 d5 f1 8c 3d bb 67 14 3c b2 ce 0b 3e 0c 28 19 be
       0.06882063 0.009057934 0.13653067 -0.14956683
000110 ea f2 a4 3d 94 fa 48 be d3 f4 46 bd 7f 60 a1 bc
       0.08054145 -0.19626838 -0.048573326 -0.019699333
000120 c4 a9 47 be 14 90 55 bd c4 46 80 3b 2a c7 a1 bc
       -0.19498354 -0.052139357 0.003914686 -0.01974829
000130 76 ba 4d 3c c0 cd 9d 3e e3 2b c0 be e5 11 d9 3d
       0.012556663 0.30821037 -0.37533483 0.10599116
000140 ee 7d e5 bd 3e 88 c3 3c a0 0a c8 3d ee 6b 04 bc
       -0.1120566 0.023868676 0.097676516 -0.008082373
000150 de 11 0d 3c 73 67 8c 3b 07 b1 2a bc 52 01 1e bb
       0.008610217 0.004284793 -0.010418183 -0.0024109674
000160 c6 39 43 be 5c 71 81 3e d9 ba 08 be f3 d4 4d bc
       -0.19065008 0.252818 -0.13352527 -0.012562978
000170 44 79 b3 bd 96 7c 28 bf e3 7a aa bc 8f ae 90 3c
       -0.08763364 -0.65815103 -0.02081055 0.017661361
000180 ff 6e d4 3d 3d 43 4b bd 45 43 02 be da 27 14 bd
       0.10372733 -0.04962467 -0.12720974 -0.036170818
000190 1f cd 18 3c 9f 63 83 3e f5 80 6c 3e 61 2f 12 bc
       0.009326248 0.25661942 0.23096068 -0.008922429
0001a0 47 32 bb bd c1 9a f5 bd db 44 54 3d bc 61 7c 3b
       -0.09140449 -0.119924076 0.05182348 0.0038510403
0001b0 1c 4b 15 be 4f e0 3e be 0c e0 c4 3c 01 1c 0f be
       -0.14579433 -0.18640254 0.024032615 -0.13975526
0001c0 3c 7c 2e 3e c5 5c a5 3d 58 e0 a0 3e 01 a7 13 3e
       0.17039579 0.08074335 0.3142116 0.14419176
0001d0 cd d0 10 3c 69 a8 1c 3d 96 01 68 be c5 45 85 3c
       0.0088388445 0.038246546 -0.22656855 0.01626862
0001e0 ce 1c 57 bd 96 70 1f 3f 42 4a 03 3e 38 dc c5 be
       -0.052517705 0.6228117 0.12821296 -0.38644576
0001f0 f7 26 12 3d 04 49 b7 bb e4 a3 0e 3c 56 d0 39 3e
       0.03568169 -0.005593421 0.008706067 0.1814588
000200 47 be 06 be 82 af 9f b9 88 85 eb bc ef 0b 01 3e
       -0.13158523 -0.00030457607 -0.028750196 0.12602209
000210 23 48 bb 3d a7 ef 4c 3e cd 91 58 be 8a ee aa bc
       0.09144618 0.20013295 -0.21149369 -0.020865697
000220 a3 3c 72 bd 94 90 78 bd 00 0a b0 bd f6 85 fb bc
       -0.05913986 -0.060684755 -0.08595657 -0.030703526
000230 fb 20 3b bc ac 09 4e be d4 a8 63 3e 91 10 2a be
       -0.011421437 -0.20120877 0.22232372 -0.16607882
000240 2f 87 0f be 8c 45 5f be d3 94 7b bc a2 ac 28 3c
       -0.14016412 -0.21803874 -0.015355307 0.010295065
000250 93 a4 d0 bc 6d de 23 bd f1 26 d3 3b 18 61 99 3c
       -0.0254691 -0.040007044 0.006443851 0.018723056
000260 e9 19 f0 3c 8f b1 ac be 9b 85 35 bd 46 9e f4 bc
       0.02930923 -0.33729216 -0.04431687 -0.029860627
000270 03 28 1e 3e b6 8e a1 3d 8d 91 cf 3b 2d 2c 65 bb
       0.15444951 0.07888548 0.0063344897 -0.0034968958
000280 39 ed f0 3d 8f 4b d8 bd a2 db ea 3c 49 15 c3 3d
       0.11763997 -0.10561287 0.028669182 0.09525544
000290 07 77 df bc f0 4b 51 be 0e 3a da be d4 73 30 bb
       -0.027278436 -0.20439124 -0.42622417 -0.0026924508
0002a0 4f 39 8d be 28 f9 1d 3f e4 62 8f bd 52 67 bb bd
       -0.27582785 0.6170831 -0.07001284 -0.09150566
0002b0 bc 92 07 bc 92 fb 7b be 48 02 2c 3c 5b 4a 0f 3e
       -0.00827473 -0.24607685 0.010498591 0.13993208
0002c0 96 6d 07 3f 18 47 57 3d 94 da 97 3e 5a dd 9d be
       0.5290159 0.052558035 0.2965895 -0.3083294
0002d0 b6 43 d9 bc 5c c0 c2 3e 47 e8 7f 3c 03 94 ad bb
       -0.026521545 0.38037384 0.015619344 -0.0052971854
0002e0 1e e1 47 bd 63 3f 01 bd 48 8c 1f 3e cd a0 91 be
       -0.048798673 -0.03155459 0.15580857 -0.28442994
0002f0 fc 39 00 be da 60 b3 bc 9d 37 15 bc 9c 40 f5 3e
       -0.1252212 -0.021896768 -0.0091074975 0.47900856
000300 15 c7 0d 3d 74 ce e5 bc 8a 6f 99 3c 6f f6 3b 3e
       0.034613688 -0.028052546 0.018729944 0.18355726
000310 17 58 a3 3d 23 c6 86 3e ce 68 4c 3e 20 13 06 bd
       0.07975786 0.2632304 0.19961855 -0.032733083
000320 7d ce 95 3e af c1 f4 bc ae 77 e2 bd de 69 0d bd
       0.292591 -0.029877512 -0.11057983 -0.03452479
000330 17 fb 8e bc 2d 46 ae be d5 7c 98 3e 9e d3 43 bd
       -0.017453713 -0.34037915 0.2978274 -0.047809236
000340 c3 6c 16 bd 07 3d bc bd 2d f7 00 be 9e e9 00 39
       -0.036724817 -0.091913275 -0.1259429 0.0001229406
000350 1b e6 37 bd 83 e3 07 bd 11 a7 83 bc 0b 14 60 b9
       -0.04489718 -0.033175956 -0.016070874 -0.00021369771
000360 ba f6 c3 bc ba 1a 17 3e 42 1e 09 3e 85 52 69 bd
       -0.02392136 0.14756289 0.13390449 -0.056963462
000370 1d c1 95 bd d1 c1 c3 3e 21 86 89 bd 1b 7c 87 bb
       -0.07312224 0.38233808 -0.06715036 -0.0041346676
000380 3c cf bd 3d f4 37 22 be fd c9 6d 3d 75 72 ad 3c
       0.092680424 -0.15841657 0.05805396 0.021172741
000390 76 20 b5 bc dc 9a b4 be a6 de 59 be d0 86 3d 3b
       -0.022110205 -0.35274398 -0.2127634 0.0028919466
0003a0 73 8e ae be 5c 88 d2 be 84 fb 0f bc d0 75 a3 bd
       -0.34093055 -0.4111966 -0.008787993 -0.07981455
0003b0 c7 d6 80 3d 41 1c 3b 3c c9 ec 46 3d e1 3f db 3d
       0.062909655 0.0114203105 0.04856566 0.10705543
0003c0 28 82 c4 3c d3 e0 76 be 1c c0 e3 bd 51 26 96 be
       0.023987845 -0.24109201 -0.11120626 -0.29326108
0003d0 73 e1 ba bc b0 41 b1 3e 41 5b b3 3e 3b 85 a1 bb
       -0.02281258 0.34620428 0.3503056 -0.0049292124
0003e0 81 6e 6d bd ae 52 16 bf 22 34 1f 3e cf de 93 3e
       -0.057966713 -0.5871991 0.15547231 0.28880927
0003f0 fe 61 81 3e eb f6 bf bc 7b ce 9d bc 86 7d 9f 3e
       0.25270075 -0.02343317 -0.019263497 0.31150454

transformer.wpe.weight f4 [33, 64]
000000 29 44 6e 3c 62 da 4c 3c 45 06 38 be 38 a8 b1 3e
       0.014542618 0.012503238 -0.17971142 0.34698653
000010 44 3b 02 bf b7 89 2c be 6e 80 af 3d a6 bc 30 3d
       -0.5087168 -0.16849409 0.08569418 0.04314866
000020 73 53 85 bc b8 79 09 bd c8 fc b2 3d 18 82 32 3c
       -0.016275143 -0.033563346 0.087396204 0.010895275
000030 9f c2 05 bd a2 cc ce 3c d3 1e 6e 3e 03 2a 16 bd
       -0.03265631 0.02524406 0.23253946 -0.03666116
000040 e8 ff 5f 3c b2 46 5e 3c 86 11 82 bc ed e9 47 ba
       0.013671853 0.01356666 -0.015877496 -0.0007626105
000050 6d f6 43 3c f5 01 57 3c df 88 20 3d 06 c6 70 3c
       0.011960608 0.013123025 0.03919303 0.01469565
000060 6d 3c af bb f2 54 12 be b9 57 47 3c 6b 41 46 3c
       -0.0053477795 -0.14290217 0.012166911 0.012100558
000070 14 39 e7 3d 3b 9f 04 3d ff 79 33 3e de 88 42 3c
       0.11290184 0.032378417 0.17527007 0.011873452
000080 bc fe 82 bd e9 05 e0 bd 08 42 19 be d1 a3 ca bc
       -0.06396243 -0.10938627 -0.14966595 -0.024736317
000090 e5 a5 80 3c b5 02 07 bd 3a d8 5d 3d 0b 16 a1 3c
       0.015704105 -0.032961566 0.054161288 0.019663831
0000a0 7b df 0b 3c 16 9b 2d be a2 e3 6d be fd 1e 84 3e
       0.008537169 -0.16953692 -0.23231366 0.25804892
0000b0 51 d5 9e 3e 3b 03 81 3d c7 e3 9f bd 9d 39 96 3d
       0.31022123 0.06299444 -0.07807117 0.073352076
0000c0 46 56 e5 3d 86 cc e5 3d ca a0 00 bd dc dc 0d 3e
       0.11198096 0.112206504 -0.03140334 0.13853782
0000d0 90 2e 3d 3d 36 2b 92 bd eb f1 02 3e d3 55 79 3b
       0.046186984 -0.07137148 0.12787597 0.003804554
0000e0 d7 45 42 3d 30 26 d5 3d 48 b9 7b 3c 55 2b fa 3d
       0.047429886 0.10407674 0.015363999 0.12215296
0000f0 d6 68 5c be f9 4e 58 3b 04 c3 68 3c e7 ba 2d bc
       -0.21524367 0.0033006056 0.014206652 -0.010603643
000100 c6 9a 74 bd ca e6 63 bd 93 c4 33 bd 11 55 00 bd
       -0.059717916 -0.05564002 -0.04388864 -0.031331126
000110 62 f0 c2 3d 89 a7 92 bd 8e b2 dc bc c2 e5 65 bc
       0.09518506 -0.07160861 -0.02694061 -0.014031829
000120 73 bb 20 bd e0 f4 e2 bc 39 2b 0d 3e da 16 50 bb
       -0.039241266 -0.027704656 0.1378602 -0.0031751902
000130 71 f5 8f bc b2 e7 2e 3c 1a d6 ff bc 13 42 d2 bc
       -0.01757309 0.010675358 -0.031230021 -0.025666272
000140 16 55 1a bd a3 b4 1d 3b ac d4 b2 bd ce 42 13 bd
       -0.0376788 0.0024063967 -0.0873197 -0.03595238
000150 0c 00 7e 3e 30 59 1e bd 65 88 29 bd ae cd 4c bc
       0.24804705 -0.038659275 -0.04138984 -0.01250021
000160 58 1c 18 ba 28 48 e7 bd 48 85 07 bd d2 b1 b6 bc
       -0.00058025634 -0.112930596 -0.03308609 -0.022301588
000170 2a f8 a3 bc 47 63 f8 3c 7c db fb bd 68 54 2a bd
       -0.020015795 0.030320777 -0.12297723 -0.041584402
000180 ca b0 54 3d 12 0c 1c be 78 ff 6c bd 3a 72 2d bd
       0.05192641 -0.1523898 -0.05786082 -0.042345263
000190 0a d0 a0 bc 01 22 9d 3c e4 51 35 3d ae 83 e8 bc
       -0.01963045 0.019181253 0.04426755 -0.028383102
0001a0 9a 9a 67 3d 87 4b c7 bd f6 1d 75 bd 0b ea e7 bd
       0.056543924 -0.097312026 -0.059843026 -0.11323937
0001b0 a3 43 76 bc ea 5c ab bd 4c 8a 55 bd ee c0 c0 bc
       -0.015030774 -0.08367331 -0.052133843 -0.023529496
0001c0 60 4c c5 3d 07 fe 9f 3d db 3e 38 bc f7 e7 87 3d
       0.09633708 0.07812124 -0.011245455 0.06636041
0001d0 00 9c a5 bc e3 dc ce 3d 28 54 13 3d 81 8e 52 bd
       -0.020215988 0.101007245 0.03596893 -0.051405434
0001e0 d3 1a 16 bd bc 7c c7 bd 2d 5b 47 3d 70 12 a0 3c
       -0.036646675 -0.09740588 0.048670936 0.019540042
0001f0 6a e3 0b bd ef 00 18 bd d1 b0 56 bd a5 5a bc bc
       -0.034152426 -0.037110265 -0.05241472 -0.022992441
000200 34 48 87 bd 57 85 75 bb b7 5a 60 bd 35 d4 3a bd
       -0.066055685 -0.003746351 -0.054774012 -0.045612533
000210 8c 12 96 3d b8 50 ab bd 5d 9f f3 bc eb 20 91 bc
       0.07327756 -0.08365005 -0.029739076 -0.017715892
000220 a2 91 2a bd 78 e1 0b 3b 92 10 0b 3e e2 fd 05 bc
       -0.041642793 0.0021344107 0.1358054 -0.008178206
000230 5f a4 15 bd 24 f9 05 3d 5c 09 22 bd 1e f1 fa bc
       -0.03653371 0.032708302 -0.039559707 -0.030632552
000240 65 1d 05 bd ad 81 da bb 74 03 69 bd 83 c8 7e bd
       -0.032498736 -0.0066682906 -0.05688806 -0.06220294
000250 f3 13 6e 3e 09 65 eb bc 79 1b 1e bd 26 f2 39 bd
       0.23249798 -0.0287347 -0.03860042 -0.045396946
000260 26 c5 fb ba 66 1c e3 bd 70 ce c0 bc c1 2a c0 bb
       -0.0019208535 -0.11089401 -0.023535937 -0.0058644717
000270 0a 0f bb bc 40 71 99 3c 96 ee f0 bd d1 1e 4c bd
       -0.02283432 0.01873076 -0.11764257 -0.049834076
000280 28 ce 92 3d e9 95 ff bd 19 3d 48 bd e5 5d 1d bd
       0.071682274 -0.12479765 -0.048886392 -0.038419623
000290 aa 5d eb bc 11 d5 44 3c 19 09 54 3d 83 30 87 bc
       -0.028731186 0.01201369 0.05176649 -0.016502624
0002a0 4e 13 34 3d 0c 2c b0 bd 91 0e 49 bd 0d ce cd bd
       0.043963723 -0.08602151 -0.049086157 -0.10049067
0002b0 78 9b c9 bc dd ef 85 bd bf 2d 7e bd 64 0d 91 bc
       -0.024610266 -0.06539891 -0.062055346 -0.01770658
0002c0 5e 90 93 3d ac d7 90 3d 47 b7 58 bc 1e c8 70 3d
       0.0720527 0.07072386 -0.0132272905 0.058784597
0002d0 40 c0 de bc 12 9b b8 3d f6 7a 2c 3d 9d 55 52 bd
       -0.027191281 0.09013952 0.042109452 -0.05135118
0002e0 32 bf a9 bc 5c 94 c7 bd 73 12 ce 3c 8e 96 67 3c
       -0.020721052 -0.09745094 0.025155282 0.014135016
0002f0 1c db 66 bc 1e 42 0a bd 63 1d 19 bd 96 a1 2f bd
       -0.014090326 -0.03375446 -0.03738154 -0.04287871
000300 cd 33 41 bd 5c 8d 53 bd f0 57 0d bd 17 35 2b bd
       -0.04716854 -0.051648483 -0.03450769 -0.041798677
000310 28 5e cd 3d 5d 1a ca bd 84 43 c8 bc cb af 5d bc
       0.100277245 -0.0986831 -0.024446256 -0.013530682
000320 27 19 41 bd 41 ea 16 bd bc d4 0f 3e 1c 41 01 bd
       -0.047143128 -0.036844496 0.14045995 -0.031556234
000330 ef d8 02 bd 99 46 c8 3c 7e b8 3d bd 19 7a 09 bd
       -0.031945165 0.024447726 -0.046318524 -0.033563707
000340 a3 f9 5c bd 6e 2c bb 3c 10 0b 0f bd f5 6a 2a bd
       -0.05394901 0.022848334 -0.03492266 -0.04160591
000350 66 9a 6e 3e ea d8 19 bd ef b1 a1 bc c9 e3 2f bc
       0.23301086 -0.03756038 -0.019738166 -0.010735461
000360 f2 5c 99 39 86 9a b6 bd 4f 1b bb bb 53 8c 88 bc
       0.00029251684 -0.08916192 -0.0057100425 -0.016668474
000370 9a c7 08 bc e1 34 d1 3c 8b 61 02 be a2 ff 45 bd
       -0.00834837 0.02553791 -0.12732522 -0.048339494
000380 53 f9 62 3d e3 16 ce bd 1e d3 ee bc bf 3a ac bc
       0.055413555 -0.10062959 -0.029153403 -0.021024106
000390 0b d5 ec bc 14 6f c7 ba 02 a3 21 3d 77 c5 95 bc
       -0.02891018 -0.0015215599 0.039462097 -0.018282635
0003a0 53 e9 a0 3d 75 20 a5 bd 67 cc 8d bd 03 6c b5 bd
       0.07857003 -0.08062831 -0.06923752 -0.08858492
0003b0 2b a3 04 bd 92 96 b4 bd 51 f7 02 bd 75 40 d6 bc
       -0.03238217 -0.088177815 -0.03197414 -0.026153782
0003c0 10 04 c0 3d a1 1e a6 3d ad 4f 47 bd 73 17 c6 3c
       0.09375775 0.08111311 -0.04865997 0.024181103
0003d0 92 16 ab bc 4f 73 a3 3d 6c 7c 05 3d f6 eb 52 bd
       -0.020884786 0.07980978 0.03258936 -0.05149456
0003e0 97 4f 7b bc dc b2 c4 bd 6e e8 7c 3d a8 0e ad 3c
       -0.0153388 -0.09604427 0.0617451 0.021125153
0003f0 76 ba 13 bd 1e cd 57 bd 5e 72 1e bd 78 63 74 bd
       -0.036066495 -0.05268585 -0.038683288 -0.059665173

transformer.h.0.ln_1.weight f4 [64]
000000 92 89 07 3a 15 c3 19 3e b2 76 3f 3e e2 2b b7 3e
       0.0005170341 0.15015824 0.18697622 0.35775667
000010 11 f7 9b 3e 52 a5 a2 3e 76 6d 87 3e 94 80 42 39
       0.30461934 0.31766754 0.264507 0.00018549181
000020 cb 2a a1 3e 92 c8 07 3e 49 1b 1d 3d ed 6d 38 b9
       0.3147796 0.13260105 0.0383561 -0.00017588558
000030 4e 89 2d ba a9 cd 8f 3e 6d 54 d2 3e 91 ea 28 3e
       -0.0006619886 0.28086594 0.41080037 0.1649573
000040 a0 97 48 38 ba 15 c9 b9 73 72 ed 38 a8 48 04 38
       4.7824928e-05 -0.00038353895 0.000113223585 3.153892e-05
000050 df e2 5a 38 22 88 33 ba fd f7 95 3d 27 dc 85 3e
       5.218654e-05 -0.00068485935 0.07322691 0.26144525
000060 89 ae 89 3e cd 7f b2 3e 1b 9c cd 39 43 34 05 bb
       0.26890972 0.3486313 0.00039216955 -0.002032534
000070 95 e7 4a 3e fa 77 ce 3e 73 62 21 3e 2b 68 c0 b9
       0.19814904 0.4032591 0.15760212 -0.00036698705
000080 c7 3c 1f 3f c0 0a 83 3e 86 2d 2e 3e b8 ec 11 3e
       0.62202114 0.2559414 0.17009553 0.14250457
000090 89 f6 e1 3b 6d 05 07 3f 1d e5 aa 3e 34 04 a1 3d
       0.0068958444 0.52742654 0.33377925 0.0786213
0000a0 f6 ba ed 3e 14 a1 e2 3e c1 78 4f 3e 63 58 b7 3e
       0.46431702 0.44263518 0.20260908 0.3580962
0000b0 28 99 55 3e 8e 35 ab 3e 23 ad 97 3e b1 0d 36 3e
       0.20859206 0.33439296 0.2962428 0.1777866
0000c0 7c bb c7 3e de e2 de 3e a8 c4 ef 3e ca eb 9f 3e
       0.39010227 0.4353246 0.46829724 0.3123458
0000d0 43 f1 00 38 58 b6 d0 3e f4 39 9f 3e 12 45 32 3a
       3.074227e-05 0.40764117 0.31098902 0.00068004534
0000e0 8d 1d f1 3d 31 8a e0 3e dd bc c7 3e 43 22 b6 3e
       0.117732145 0.43855432 0.3901128 0.35573015
0000f0 c6 be a2 3e b0 e3 fc 3d 9b 7b 78 3a bd 2c 11 3f
       0.31786174 0.123481154 0.0009478868 0.5670889

transformer.h.0.ln_1.bias f4 [64]
000000 08 97 e6 b9 ef 58 f5 3c e2 95 03 bd 01 96 72 bd
       -0.00043981546 0.029949633 -0.03212536 -0.059225086
000010 38 04 f9 bd 6a 62 f6 3d 57 ed 13 bd aa 97 06 3a
       -0.12159008 0.1203049 -0.036115017 0.0005134294
000020 8a 90 b4 3c b9 85 f1 3c a5 8b 53 39 16 67 ea b7
       0.022041578 0.02948271 0.0002017455 -2.7942977e-05
000030 e4 70 e9 39 91 9d c2 3c f0 75 32 bb c4 0f 98 3c
       0.00044525333 0.023756774 -0.002723094 0.018562205
000040 49 d3 04 ba ec e2 d9 ba f3 5f 0c b6 86 d0 15 3a
       -0.00050668843 -0.0016623414 -2.0917475e-06 0.00057149713
000050 03 b0 e0 b8 0e 5a 5b 3a c7 3f 61 ba 9f fd 9f bb
       -0.00010713937 0.0008367606 -0.00085925724 -0.004882529
000060 0b f7 0d 3d 64 58 99 bd b0 dc 58 39 7e ae 84 39
       0.034659427 -0.07487562 0.00020681578 0.0002530701
000070 97 f2 8c bc 4b 0c c4 bc 51 f5 0d 3c f0 c8 82 b9
       -0.01720552 -0.023931643 0.008664445 -0.00024945242
000080 09 4b 40 be 77 17 04 3d 35 8f f5 3c df fd ea 3b
       -0.18778624 0.03224894 0.029975513 0.007171377
000090 7b 5a ed 3a 85 74 b1 bd b8 7d ee bc 69 53 78 bb
       0.001810863 -0.086648025 -0.029112682 -0.0037891513
0000a0 f1 e5 3d bd 94 79 31 3d b7 62 ba bb fb cb 0b 3e
       -0.046361867 0.043328837 -0.0056880373 0.13652031
0000b0 d2 10 82 bc 33 dd f2 bc a3 3c 35 3d 71 5a 36 b7
       -0.015877161 -0.029646492 0.04424728 -1.0869103e-05
0000c0 06 b9 d1 bd 6a 8c e4 bd 6c 92 b2 bd 29 b1 29 3d
       -0.102403685 -0.11159594 -0.08719334 0.04142872
0000d0 81 3c f1 38 a7 45 2f 3b 94 17 d9 3c c0 ed c1 39
       0.00011503045 0.0026744397 0.0265005 0.00036988966
0000e0 2e 80 a0 bb d1 6f 14 3e 0e 7b d4 be 48 8a d9 bc
       -0.0048980927 0.1449578 -0.41500133 -0.026555195
0000f0 30 fa 55 3d 95 bb 2d 3c 50 22 48 3a cf 18 91 bd
       0.05224055 0.010603805 0.00076345075 -0.0708481

transformer.h.0.attn.c_attn.weight f4 [64, 192]
000000 f4 78 9d bd 05 02 ef bb 90 95 a4 bc 56 f9 66 3b
       -0.076890856 -0.007293942 -0.020090848 0.003524383
000010 97 9c 5a bd 01 2a c2 3c 42 31 5b bd 28 36 e8 3c
       -0.053371992 0.02370167 -0.053513773 0.028346136
000020 c9 59 07 bb d3 7a 5b bc 77 58 a4 3a b5 73 7c bd
       -0.0020652881 -0.013395983 0.0012538572 -0.061633784
000030 5f 50 c0 3c b1 d6 87 3b 6f 03 05 bc 69 98 f3 3c
       0.023475824 0.0041454663 -0.008118494 0.02973576
000040 f8 0c 67 3c 4f 42 6e bb 57 32 c1 ba e8 3d eb bc
       0.014102213 -0.003635544 -0.0014739734 -0.028716043
000050 52 ef c9 bc 61 de 91 bd 74 1d 39 bb 5a 23 25 bb
       -0.02465025 -0.071224935 -0.0028246315 -0.0025198073
000060 2f 8f 84 3b 52 83 0b bc 35 e6 40 3d 87 ce 8b bd
       0.004045389 -0.008515196 0.047094543 -0.06826501
000070 09 be 89 3b 9d 63 26 3b 20 47 7a ba 08 84 ac b9
       0.004203562 0.0025388964 -0.00095473416 -0.00032904767
000080 73 7d a3 bc 06 e8 28 bb 6f ce 46 3d 6b b6 13 3b
       -0.01995728 -0.0025773062 0.048536714 0.002253915
000090 ef 6f 4c bd bc 11 66 bd 87 c8 b7 ba 0f 07 90 bb
       -0.049911436 -0.056169257 -0.0014021554 -0.0043953727
0000a0 43 c9 01 bc 4f 67 88 bb 98 2e c5 3b 9c 13 30 bc
       -0.00792152 -0.004162706 0.0060175173 -0.010746863
0000b0 81 a6 27 bb 26 a3 62 3c 03 05 51 3d a7 d7 d5 bb
       -0.0025581422 0.013832843 0.05103017 -0.006525952
0000c0 16 d2 89 bd 76 d2 a3 bd 28 28 02 bc cc 4d 47 bc
       -0.06729524 -0.079991266 -0.007944144 -0.012164544
0000d0 eb 71 0d 3d 14 6d 04 3b ac 6b 0c 3c 0c 9b 3a 3d
       0.03453247 0.0020206617 0.008570593 0.04555802
0000e0 79 e6 e3 b8 5a 31 9b 3d 70 d8 e0 bc 70 22 70 ba
       -0.000108671324 0.075777724 -0.027446955 -0.0009160405
0000f0 4d 72 8a 3b 64 5e 97 bc ee 09 63 3d cd 75 72 3d
       0.0042250515 -0.018477626 0.05542939 0.059194375
000100 d5 7b 31 be 8a d7 d6 3b 60 9c c9 bb 8d ca 5b bb
       -0.17332394 0.006556456 -0.0061526746 -0.0033537478
000110 55 d9 b5 bc 5f 8e 13 bd e9 6d c4 bd 6b 24 ca 3d
       -0.022198359 -0.036024448 -0.09591276 0.098702274
000120 ee f2 39 bb 73 6f 3b 3e f0 22 80 3a 80 e2 bc 3d
       -0.0028373557 0.18304233 0.0009776037 0.09222889
000130 e2 28 c4 bb 25 81 8d 3b d8 af 99 bb 9d 41 99 3d
       -0.005986319 0.0043183737 -0.0046901517 0.07483218
000140 bc 14 c1 bb 1a f7 05 3b ff b1 84 bb a0 25 99 3a
       -0.0058923643 0.0020441473 -0.004049539 0.0011684187
000150 4c 54 a0 bc fd 36 0f bd 4d 3c 85 3b a2 68 86 bb
       -0.019571446 -0.03496455 0.0040660263 -0.0041018287
000160 dc 0c 04 3c 5a 7c 3e 3d a8 cd 9e 3c e9 92 cc 3d
       0.008059707 0.04650531 0.019385174 0.099889584
000170 b7 82 49 3d 71 85 7c 3b b8 70 24 3b f8 eb 13 3b
       0.049196925 0.0038531686 0.00250916 0.0022571068
000180 b1 d0 af bb 06 5f 31 bb f2 ad 1e bd 6b 1e 7e bb
       -0.005365454 -0.0027064695 -0.038740106 -0.0038775455
000190 89 33 fa 3c 2d 3c 3f be a8 74 19 3b a2 95 a3 bb
       0.030542152 -0.18675299 0.002341548 -0.004992203
0001a0 84 f5 e6 3b 07 29 c0 3b 04 98 4d 3b 45 97 9e 3b
       0.0070483107 0.005864266 0.0031371126 0.00483981
0001b0 6e b5 eb ba 01 f8 91 3b 34 06 5d be 26 95 a0 bc
       -0.0017983147 0.004454613 -0.21584398 -0.01960237
0001c0 09 57 17 be 57 40 de 3a 94 fd 09 be dc e0 7b bb
       -0.14779295 0.0016956431 -0.13475639 -0.0038433587
0001d0 44 5f 57 bc e0 cf 80 bd 98 31 37 bb 05 28 02 3e
       -0.013145272 -0.06289649 -0.0027953144 0.12710579
0001e0 62 7c 06 bc 47 3c 4a bc 3a f4 db 3c 43 3c 68 bb
       -0.008208366 -0.012343473 0.026849855 -0.003543631
0001f0 20 c6 89 ba 67 12 a7 bd 10 ac 07 be f1 55 44 bd
       -0.0010511316 -0.08157807 -0.1324923 -0.047933523
000200 c4 f6 80 3b 16 bc b6 3b 0d 67 fd bc b1 e3 51 3c
       0.0039356668 0.005576621 -0.030932928 0.0128106335
000210 4c 69 1a 3c bd bb 8c bb 33 8a 00 bb db 57 a7 3d
       0.009424519 -0.004294841 -0.0019613623 0.08171054
000220 21 69 8f 3b 86 b3 b0 3b 0a 29 0e 3d 94 f4 9c bc
       0.004376546 0.0053924946 0.034707107 -0.019159593
000230 74 fb 79 bc 05 25 b3 3b ec aa 81 bc d6 1e a9 ba
       -0.015257705 0.0054670596 -0.015828572 -0.0012902867
000240 b1 03 ea 3c 68 31 f6 3c f9 b2 b4 3b 98 34 07 3b
       0.028566213 0.030052856 0.0055144993 0.0020630714
000250 0d 6c c0 3b 18 a9 0b 3b 3d 21 0b 3d f5 5a 51 bc
       0.0058722557 0.0021310505 0.033967245 -0.0127780335
000260 ea 3c 1e bb 9a c6 43 bb 03 56 8b 3d 1d 00 2b 3a
       -0.0024145194 -0.0029873014 0.06803515 0.0006523149
000270 0b 1b f3 3c dc 60 08 bd e8 f2 4a 3a 4e 58 02 3c
       0.029675981 -0.033295497 0.00077418843 0.007955624
000280 8c b3 c4 3a 47 46 ca 3c b5 b0 03 bd 07 31 9b bc
       0.0015007122 0.024691714 -0.032150943 -0.018944276
000290 db 5a eb 3b 0a 50 92 3b 62 32 35 bc bb d7 03 3d
       0.0071824617 0.004465108 -0.0110593755 0.03218816
0002a0 63 97 46 ba dc ca 14 bd 2d 30 26 3d 43 12 85 bd
       -0.0007575659 -0.036326274 0.040573288 -0.06497624
0002b0 7b 86 a4 bc ec 70 03 3b 74 49 3a bd 23 9b c4 3c
       -0.020083657 0.002005632 -0.045480207 0.023999756
0002c0 41 c3 63 3c 2d 99 9b 3a ac 1a c1 bb 00 26 1d bb
       0.013901533 0.0011871211 -0.005893072 -0.0023978949
0002d0 fb 0f fc 3c f7 d6 31 bb 37 b6 ee 3c fa 5c cc ba
       0.030769339 -0.0027136186 0.029139621 -0.0015591674
0002e0 31 c5 a0 3c 43 1c d6 3b ec 1e 82 ba 0c 17 93 39
       0.019625278 0.006534131 -0.0009927428 0.00028055196
0002f0 68 6d 2a ba 6d 87 25 3b 42 d1 a7 3c 57 c2 b8 bc
       -0.0006501288 0.0025257722 0.020485524 -0.022553606
000300 02 9f 03 bc 7e 2a 7e be 46 52 62 ba 35 16 2c be
       -0.008033516 -0.24820897 -0.00086334755 -0.16805346
000310 e9 72 a4 3c 03 09 df bc 62 ae 06 3c 44 06 60 3c
       0.020074325 -0.027225977 0.008220287 0.013673369
000320 75 a7 19 3e d2 2b fe 3c 89 74 2c 3e 98 04 02 3d
       0.15005286 0.031026755 0.1684133 0.031742662
000330 52 2f 8d 3c dd 8d ad 3d ec 2b df 3c 3b ee 0c 3c
       0.017234478 0.08474324 0.027242623 0.00860172
000340 27 07 ba 3d 32 c1 5a bd 8d 1c 0b be 9d 84 7f 3b
       0.090833955 -0.0534069 -0.1358511 0.0038988956
000350 61 62 d5 bb 0d 3c a4 3c 31 9f 6c bd f1 32 a7 bc
       -0.006511972 0.020048166 -0.057769004 -0.020410033
000360 c8 a1 48 be 57 37 54 bc 73 2a 2d ba 42 60 3e bb
       -0.19592965 -0.012952647 -0.00066057517 -0.0029049073
000370 1d 06 19 bd c0 a2 28 be 02 9a b1 3d fc 95 3e be
       -0.037359346 -0.16468334 0.08671953 -0.18611902
000380 d9 96 b5 3b 92 7a b2 bd c8 cf ac bb 46 ee 0c 3e
       0.005541664 -0.08714785 -0.005273793 0.13762769
000390 ae e4 b9 3c ed 02 9c bc e3 59 10 3d 06 dc 11 3e
       0.02269205 -0.019044364 0.035241973 0.14244089
0003a0 cc e5 eb 3b cb c6 fe 3d 2e 27 c0 bc d1 f2 f0 bd
       0.007199025 0.124402605 -0.023456182 -0.117650636
0003b0 0e e3 7f 3e 98 db 9b be c6 de 73 bc e1 dc 91 3b
       0.24988958 -0.30440974 -0.014884656 0.0044513796
0003c0 6a ed a7 3b 3e d3 52 3c 85 d3 06 bd f0 8c 94 3c
       0.0051247375 0.012867747 -0.032916564 0.01813361
0003d0 96 2b 99 3c ae 2e d6 3b 26 81 b7 3e 98 dc d3 3c
       0.018697541 0.0065363264 0.3584072 0.025862023
0003e0 18 44 10 3e 27 d6 b2 3b d1 31 98 bd c2 b6 a0 3d
       0.14088476 0.005457658 -0.07431377 0.07847358
0003f0 1b cf 74 3d 90 62 61 bb 4d dc 3e 3c 99 e2 ce bc
       0.059767824 -0.0034391023 0.0116492035 -0.025254535

transformer.h.0.attn.c_attn.bias f4 [192]
000000 6a fe 74 3b 69 88 68 3e b8 98 b0 ba 2b 2b 1c bf
       0.0037383088 0.22708286 -0.0013473248 -0.6100337
000010 75 6d 76 39 b8 28 8e ba 12 b2 93 3a d0 4e 15 bb
       0.00023501164 -0.0010845875 0.0011268279 -0.0022782572
000020 9e 8c 0f bf cd 7b e5 38 f6 98 24 3c ac e6 4a bb
       -0.5607394 0.000109426306 0.010046234 -0.0030960245
000030 bf c7 ea ba f5 8e 91 3e c1 fa 1f bf 3e 55 e4 bb
       -0.0017912312 0.2842938 -0.62491995 -0.0069681695
000040 53 32 46 3c 38 e8 ee 3d 09 9f 9a bd b0 61 35 3b
       0.012096959 0.11665386 -0.07549865 0.0027676634
000050 54 2a 2d bb e1 4d cb b9 01 97 69 3e 74 01 33 bf
       -0.0026422935 -0.00038777202 0.2281151 -0.6992409
000060 a6 b0 79 bd 09 17 91 3b eb c2 98 bb 24 9a ac ba
       -0.06095948 0.004427795 -0.004661908 -0.0013168496
000070 66 46 2a 3b a9 1c ac be 02 55 2d 3e 95 ab 25 bf
       0.0025981902 -0.33615616 0.16926959 -0.6471494
000080 8c 33 59 ba e6 ba 83 bd 05 80 0e 3b 27 5e d4 bd
       -0.0008285574 -0.064321324 0.0021743786 -0.10369521
000090 14 af 0f b8 e3 b7 f3 3a 2f d2 46 3f f9 d0 5f 3f
       -3.425691e-05 0.0018594231 0.77664465 0.8742824
0000a0 6c 52 c2 3e 38 7e 3d bf b4 83 dc 3e 07 d6 52 3d
       0.37953508 -0.7402072 0.43069232 0.051473644
0000b0 e1 f7 9f bd f3 cb 07 3e 85 ce ca 3a bb 27 fe 3a
       -0.07810951 0.13261394 0.0015472925 0.0019390503
0000c0 35 a1 4a 3b 86 18 9b 3b b0 af 88 3a d2 75 9f b9
       0.003091884 0.004733148 0.0010428336 -0.00030414626
0000d0 87 fb 48 39 58 5e 8c 3b eb 3e 02 be 8c 0d d2 ba
       0.00019167188 0.0042837076 -0.12719314 -0.0016025766
0000e0 62 98 e1 3d 5e 7d 47 ba 04 e8 74 bb 49 2d f7 bd
       0.11015393 -0.0007609929 -0.0037369737 -0.12069184
0000f0 47 c7 99 3d 42 55 81 3b bb 2d 6b 3a 11 04 8b ba
       0.07508712 0.003946931 0.0008971353 -0.001060607
000100 10 95 ff 3b 69 a2 40 3c de a7 b8 bc 75 d2 61 be
       0.007799752 0.011757472 -0.022540983 -0.22052939
000110 28 0a 14 3b fc d6 1c bb d6 12 fe bb 04 d4 bc ba
       0.0022589061 -0.0023931852 -0.0077537103 -0.0014406447
000120 1c 0d 64 be d7 f5 df 3b 09 55 78 bc f0 f4 02 bb
       -0.22270626 0.0068347263 -0.015156993 -0.001998242
000130 c3 19 d6 3b 56 3b ad 3d 5a 85 99 bd e1 c5 18 bd
       0.0065338328 0.08458583 -0.07496138 -0.037298087
000140 07 7e 15 bd 5f 1a 17 bd 5b 1a a9 bc 66 0a 24 bc
       -0.036497142 -0.036890384 -0.02064245 -0.010012245
000150 f6 6f 49 bb bc 04 51 ba f1 f1 0f 3c 7f 6f 75 be
       -0.00307369 -0.0007973423 0.008785711 -0.23968314
000160 b3 ef 4c bd f6 27 b8 bb af 8e 2c 3b d0 16 82 3b
       -0.050033282 -0.005619998 0.0026330163 0.0039700046
000170 fe 29 39 3c 57 63 ba bd ff 73 48 3d 98 9b 66 be
       0.011301516 -0.09100979 0.048938747 -0.22520292
000180 bf c9 8c bb 1a 7c 77 bc 32 a3 69 3c 36 20 39 bd
       -0.004296511 -0.015105272 0.0142601 -0.045196734
000190 ab 21 12 bc ca de b7 bb a0 56 3d 3e 64 74 58 3e
       -0.00891916 -0.0056112753 0.18490076 0.2113815
0001a0 5b a7 af 3d 01 71 b0 bd de 1b c2 3c 38 64 a0 bc
       0.085768424 -0.08615304 0.023694929 -0.019579038
0001b0 2e eb 04 bc dc bb 1e 3d 0e 7d 39 bb 08 ed 2c ba
       -0.008112712 0.038753375 -0.0028303298 -0.00065965997
0001c0 e8 3f a9 3b ea 83 0b 3d 44 c0 b8 3b 7c c2 b6 bb
       0.005165089 0.03406135 0.005638154 -0.0055773836
0001d0 77 0e 4a 3b bc 2c 11 3d 8e 57 4f bd 09 e6 83 3b
       0.0030831376 0.035443053 -0.050620608 0.004025225
0001e0 72 18 b8 3d 93 7f 3c 3c 61 65 2c bd bf 5b 43 3c
       0.089890376 0.011505025 -0.04208887 0.011923729
0001f0 6a c8 44 bd d4 db 4c 3b d8 d3 3a bc c8 fc 94 b9
       -0.048042692 0.0031258957 -0.011403047 -0.00028417096
000200 77 4f 8a ba 26 44 61 bb 35 05 82 3b ba 63 44 ba
       -0.0010552247 -0.0034372895 0.003967906 -0.0007491667
000210 1a fa 9e ba 72 37 75 3b c8 60 b4 bb 8e 3d d3 3a
       -0.001212898 0.0037417081 -0.0055047013 0.0016116367
000220 a0 7a f3 3c 51 ec 5a 3c b7 1c 68 b9 7b c9 b1 3c
       0.029721558 0.013362006 -0.00022135941 0.021702519
000230 d2 dd 4b 3d 86 23 0d 3b af a3 a3 39 da c6 4d bc
       0.04977209 0.0021536066 0.00031211736 -0.012559617
000240 c2 4a c8 bc a4 e8 e8 3a 6b 72 90 3a cf ed 60 3c
       -0.02444971 0.0017769528 0.0011020427 0.013728573
000250 08 9b 13 3c c7 0c f7 3a 70 14 72 3b 9f 69 ac 3c
       0.00900913 0.0018848412 0.0036938451 0.021046458
000260 b2 40 81 ba d2 01 93 ba 16 7e 0c 3a c5 e8 66 3c
       -0.00098612 -0.0011215752 0.00053593644 0.0140935825
000270 96 45 61 b9 02 2d 5e ba 9f ba 22 bc c5 00 99 ba
       -0.00021483595 -0.00084753346 -0.009932189 -0.0011673203
000280 ba 12 c8 bb c6 c5 d7 bb a2 7f 04 bb 62 d3 31 3a
       -0.006105748 -0.0065848557 -0.0020217677 0.00067835127
000290 62 52 eb 3c b5 fd 92 3a fe 9b d7 3c d8 b6 75 3a
       0.028725807 0.0011214527 0.0263195 0.0009373254
0002a0 9a a2 0e 3c 21 58 ae 3a 19 86 08 bc f5 00 f0 37
       0.008705759 0.0013301411 -0.008332753 2.8610675e-05
0002b0 f5 94 45 ba 20 e6 ee 3c a9 cd 64 3a cc 11 4e ba
       -0.000753715 0.029162467 0.00087281555 -0.00078609283
0002c0 73 f1 ee ba ab b1 0a 3a 14 b3 90 3a 13 12 a2 3c
       -0.0018229916 0.0005290757 0.0011039698 0.01978401
0002d0 0f 38 03 3b 69 51 9f 3a a1 22 8f ba 78 9a a6 38
       0.0020022427 0.0012155 -0.0010920354 7.944269e-05
0002e0 60 43 c2 3a c0 fd 14 3d 94 36 98 bb 87 4b 3d 3b
       0.0014821105 0.036374807 -0.004645178 0.002888413
0002f0 07 2c 5f 3c 9c 84 15 3c 50 28 60 bb 0f 09 7c 3b
       0.013621337 0.009125855 -0.0034203716 0.0038457548

transformer.h.0.attn.c_proj.weight f4 [64, 64]
000000 5a e7 8e 3b c4 d4 0a bb 46 1e b3 3b c5 10 99 3a
       0.0043610753 -0.0021183947 0.0054662554 0.0011677971
000010 b5 b4 90 bb c8 d6 61 bb a5 95 b2 ba 8d 05 2d 3d
       -0.004416073 -0.0034460295 -0.001362492 0.04224162
000020 84 bb 5e bc c8 d6 58 ba 66 c1 82 3c 65 25 bc bc
       -0.013594512 -0.0008271751 0.01596136 -0.02296705
000030 9b 67 20 bd 04 42 0e bc 41 12 2f bc 90 98 db bc
       -0.039161306 -0.008682732 -0.010685504 -0.026806146
000040 40 d3 26 3b c8 0d 09 bc da ba d4 3b 4e 2d da 3b
       0.0025455505 -0.008365102 0.006492001 0.006658233
000050 4a 88 9f ba a4 7e 57 3c ab 11 5b bc f8 de f4 3a
       -0.0012171355 0.013152752 -0.013370912 0.0018682173
000060 eb 6a e7 3a 2c 76 b4 3b 9e b7 9c ba 54 d7 ee bb
       0.0017655765 0.0055072512 -0.0011956578 -0.0072888527
000070 12 ab 35 3c 42 e3 c1 3b 62 18 81 3b 18 ba 11 3c
       0.01108815 0.005916984 0.0039396742 0.008894466
000080 d4 4f 29 bc c7 a9 f5 ba 49 cc 81 bc 1a c1 fd bb
       -0.010333974 -0.0018742614 -0.015844481 -0.0077439668
000090 af c0 a7 3c ec 69 0a bb 9c cc e7 39 f8 18 64 bb
       0.02047762 -0.0021120263 0.000442122 -0.0034804922
0000a0 8c f2 3b 3b c8 fc 00 3b 57 32 31 3b da 1d 15 3b
       0.0028678505 0.001968192 0.0027038062 0.0022753389
0000b0 ac 98 5d bc 61 2d 3c 3a fe 70 f7 3b 8d 07 06 bb
       -0.013525169 0.0007178393 0.0075513115 -0.0020451278
0000c0 4c 28 ab ba 60 f8 62 bb 49 62 17 3c 50 bd 2a 3c
       -0.0013058274 -0.0034632906 0.009239742 0.010421112
0000d0 d3 83 9a bc ad 87 79 bb 5a de 7f 3a d5 50 b0 bc
       -0.018861687 -0.0038075254 0.0009760611 -0.021522919
0000e0 b4 35 02 bd f3 27 27 3b c2 9e 83 3a 08 c9 8f 3b
       -0.031789497 0.002550599 0.001004182 0.0043879785
0000f0 d7 c7 80 3b 14 51 4c 3b 12 4e f3 3c e8 d4 3e 3b
       0.0039300728 0.0031176256 0.029700313 0.0029118601
000100 c3 56 6e be 2a 77 e4 bd 71 cc 79 3d 94 84 19 3d
       -0.23275284 -0.11155541 0.060985986 0.037479952
000110 ae 02 42 be 4e f1 c5 bd 0b 71 7e 3e 0a 84 ff bc
       -0.18946335 -0.09665166 0.2484781 -0.03119089
000120 75 88 51 bd a7 c6 23 3d 65 7b dd bc 61 de ce bc
       -0.051155526 0.03998437 -0.027036378 -0.025252523
000130 fb 66 c9 3c 17 3e 29 be 5e 53 a8 bd 1b be 9d 3c
       0.024585238 -0.16527592 -0.08219026 0.019255688
000140 35 c4 0c bf d5 71 93 ba 6a a8 dc 3e f7 aa 13 be
       -0.5498689 -0.0011249135 0.4309724 -0.14420687
000150 ef b9 c4 39 6c 63 12 3c e1 ef 27 bd 9d e3 8f 3d
       0.00037522565 0.008934837 -0.04100025 0.07025836
000160 24 d2 ea bc 63 49 38 bd 4e 3b ee bb 33 9a 17 3c
       -0.028664656 -0.044991862 -0.0072702533 0.009253073
000170 c5 62 58 3d ba 08 39 3e 7c 91 64 3d 6a 70 82 bc
       0.05282857 0.18069735 0.055802807 -0.015922744
000180 3b b2 f0 3d 06 50 59 bd 70 4c d8 bc 70 3d 83 3d
       0.11752745 -0.053054832 -0.026403636 0.06408203
000190 95 c9 c8 3b 7e 22 49 bd 4e cb 9b 3d 58 d4 22 3c
       0.006127546 -0.04910516 0.07607137 0.009938322
0001a0 64 88 02 3d 5e 48 06 bd dc 5d 8d bd 17 c7 a7 3d
       0.031868353 -0.03278386 -0.06902668 0.0819227
0001b0 59 d6 56 bd 95 ba 33 3c 91 e5 1b 3d 56 08 86 bc
       -0.05245051 0.010969778 0.03806073 -0.016361397
0001c0 a1 36 c0 bd 31 dd 30 3d 7a 5c fc ba 9e b5 7a bd
       -0.0938542 0.043179695 -0.0019253634 -0.06120836
0001d0 f4 ae ca 3c 53 c9 83 3d 62 5b af bd b5 d3 14 bd
       0.024741627 0.06434884 -0.08562352 -0.036334712
0001e0 0f bb 53 bb 81 4a 73 3d ea b7 66 3d 30 29 95 bd
       -0.003230754 0.059397224 0.056327738 -0.072832465
0001f0 3f 85 05 bc d8 2a 69 3e 5c 4d 89 3b b6 ff 8a 3d
       -0.008149444 0.2277025 0.00419013 0.06787054
000200 ea 10 ca 3a bc de b3 3b 24 c2 8f bb 7b d2 ac bb
       0.0015416418 0.0054891985 -0.004387157 -0.0052741147
000210 35 4f 35 3b 59 2a 34 ba 44 e3 f1 bb e1 1d 39 3c
       0.002766562 -0.00068727654 -0.0073818285 0.011298628
000220 3f 8e 47 3a 41 25 a3 b9 74 27 1d 3b 08 df a9 bb
       0.0007612444 -0.0003111754 0.0023979815 -0.005184058
000230 aa 7e 12 bc d0 be ca 3b 22 49 28 bb 1a d6 26 3c
       -0.008941332 0.0061872974 -0.0025678356 0.010182882
000240 ab b2 27 bc 0d 04 77 3b 61 6c 7a 3b 94 86 ca 3b
       -0.010235469 0.0037691623 0.0038211572 0.0061805937
000250 98 77 8d b9 65 13 73 3c f1 da 43 bb 42 b3 25 bc
       -0.0002698272 0.014836167 -0.0029885138 -0.010113539
000260 ae ee 5a 3b 4e cf 5a bc 47 11 de bb 24 04 29 3c
       0.0033406424 -0.013355089 -0.006776962 0.010315929
000270 f2 36 04 3c e1 43 94 bb ca c0 4b bb 99 cf 3c bc
       0.008069741 -0.0045246934 -0.0031090253 -0.0115241045
000280 11 b1 44 bc 18 0a d4 bb 28 74 fb b9 14 29 a6 3a
       -0.012005107 -0.00647093 -0.00047960994 0.0012677037
000290 10 63 c5 bc b8 5a 8f 39 17 68 b4 3b 8a 02 91 bc
       -0.024095088 0.00027342676 0.0055055725 -0.017701406
0002a0 1d 2e 63 bb b2 5b 0d bc ed a8 7c 3b b7 b4 0d 3c
       -0.0034664937 -0.008627819 0.0038552836 0.008649043
0002b0 e0 64 75 bb 43 89 69 bb 8e 0c 23 ba 97 67 c2 3c
       -0.003744416 -0.0035634793 -0.00062198273 0.023731036
0002c0 f1 af 40 3b 3b d2 ed bb 88 7d 83 3b 3a 23 8c bb
       0.0029401744 -0.0072577274 0.004012767 -0.0042766603
0002d0 4d a2 1a 3d 44 5d 5a 3c 3f 39 db 3b f5 a7 ba bc
       0.03775244 0.0133279 0.006690174 -0.022785166
0002e0 5f ae ad 3b 7b 38 46 ba c7 57 62 bc 2b fd 5f 3c
       0.0053003277 -0.0007561517 -0.013814873 0.0136712
0002f0 ca b2 87 3a 9b e7 b0 bb d1 27 2d 3b 84 81 eb 3a
       0.0010352966 -0.0053987033 0.0026421438 0.0017967676
000300 0c 77 a3 bb 72 a5 52 bb 60 e0 c6 bb a1 bb 1c 3b
       -0.0049885567 -0.003214207 -0.006069228 0.0023915546
000310 d1 52 af bb 2e bb 91 3b 2f e2 89 3c e3 d1 57 bd
       -0.0053504487 0.0044473624 0.016831486 -0.052690398
000320 f2 9c c4 3a 9c 4c ec ba 5a 66 58 bb 6a 18 a1 bc
       0.0015000387 -0.0018028202 -0.003301999 -0.019664962
000330 1c d4 1f bd 43 d5 1b bc 93 a5 df 3a e5 6c b0 b9
       -0.039020643 -0.009511295 0.0017062895 -0.0003365047
000340 aa ae 95 3b 2a 55 c9 3a 89 4a 05 bc c5 57 b0 bb
       0.0045679407 0.0015360464 -0.008135446 -0.0053815567
000350 02 38 f3 b9 72 96 e3 bc 6f e0 ca 3b c2 f2 08 3b
       -0.000463903 -0.027781699 0.0061913054 0.0020896648
000360 78 02 1c bb 02 b0 a6 bb 15 68 ec 3b 31 11 fa bc
       -0.0023805182 -0.0050868997 0.007214556 -0.030525776
000370 1b a3 30 ba 9f de a0 3b c7 9e 82 3a 9e b8 c4 3c
       -0.0006738172 0.004909351 0.0009965532 0.024013814
000380 a7 c6 17 bc d0 ed 1f 3c c2 b0 b6 3b 62 fa 85 bb
       -0.009263671 0.009761289 0.0055752704 -0.004088686
000390 05 94 c9 bb 32 23 18 bb fe 07 52 3b f6 9a 14 3c
       -0.0061516785 -0.0023214337 0.003204822 0.009070149
0003a0 d8 3a 5c ba 98 88 97 b9 47 54 46 3b de de 0c bc
       -0.00084011024 -0.00028902735 0.0030262636 -0.008598058
0003b0 bd c7 5f 3b 34 99 82 3b f3 13 8f ba 57 27 40 3c
       0.0034146153 0.0039855484 -0.001091598 0.011728129
0003c0 34 98 3b 3b 48 06 01 3c e9 b2 ab bb e3 12 2a 3a
       0.0028624656 0.007875033 -0.0052398336 0.00064877997
0003d0 1a 47 92 3b 93 48 47 bc d8 38 a7 3b 19 17 df bc
       0.0044640424 -0.012163299 0.005103212 -0.027232694
0003e0 c9 9d 19 3d 48 54 85 3b 61 f1 82 3b 25 56 05 bc
       0.03750399 0.004068885 0.0039960598 -0.008138214
0003f0 db f5 0b bb 84 62 5d bb 1f e7 b0 3c 68 9d ce 39
       -0.0021356258 -0.0033780644 0.021594582 0.0003940866

transformer.h.0.attn.c_proj.bias f4 [64]
000000 2e 70 e6 3c a4 04 88 3d 38 9e 1a bd 93 4e b3 be
       0.028129663 0.0664151 -0.037748545 -0.35020885
000010 03 9a f8 3d 79 f7 d4 be 3c 80 ff 3d 2d 10 1e 3d
       0.121387504 -0.41595057 0.12475631 0.038589645
000020 c2 a8 ac 3e a2 1c c4 3d 8d 2a 3c be ff cb e0 3e
       0.33722502 0.09575774 -0.18375607 0.43905637
000030 ee 10 a6 bd 9c 83 bf 3d d4 6a f1 3a 5f db 53 bb
       -0.08108698 0.09351274 0.0018418678 -0.00323268
000040 67 14 2b 3d 78 05 33 3b 87 5c 40 3d f9 79 64 3d
       0.041767504 0.0027316492 0.04696324 0.055780385
000050 2b 4f 9d be b3 44 9a 3e 71 00 aa be 0a 48 0b 3d
       -0.30724463 0.30130538 -0.33203462 0.03400425
000060 48 8f 1a 3f bf fe a1 bc e8 0e f0 3d 8f 46 da 3e
       0.6037488 -0.019774793 0.11721593 0.42631957
000070 3e 09 8d 3e 1d 40 5d 3d 11 c6 08 3f a3 ea 29 3d
       0.27546114 0.05401622 0.53427225 0.041483533
000080 61 c4 6e 3e 29 ad 26 be 22 14 c4 be 0c d7 99 3e
       0.233171 -0.16276993 -0.3829661 0.3004688
000090 9c f5 a1 be 4c 7e 99 be a7 26 82 be 02 13 75 be
       -0.31632698 -0.2997917 -0.25420114 -0.23933032
0000a0 f6 07 9f bd 34 3a 94 be ba c0 e7 3e b0 f9 9f be
       -0.0776519 -0.28950655 0.45264226 -0.31245184
0000b0 6b b5 e5 be d8 ce d3 bd e5 4f 14 bf d5 d9 8a 3e
       -0.44864973 -0.10342187 -0.5793441 0.27119318
0000c0 de 72 a6 3e 5d d1 57 3e 16 45 4f be e8 b7 3b 3e
       0.32509512 0.2107596 -0.20241198 0.18331873
0000d0 fa df 98 be 18 64 6b be bb ca a1 be 99 e0 35 3d
       -0.2985838 -0.22987401 -0.31599984 0.044403646
0000e0 3e f7 7e bd 44 aa 87 3e 82 d0 5a 3e 94 ce 31 3e
       -0.062247507 0.2649709 0.21368602 0.1736396
0000f0 88 d1 eb 3e bc 85 37 3d 3f 4a 3f 3e a4 61 bc bd
       0.46058297 0.044805273 0.18680666 -0.09198311

transformer.h.0.ln_2.weight f4 [64]
000000 46 5e 55 3a c2 56 f0 37 93 6c 26 ba 40 5e a5 3f
       0.0008139353 2.865063e-05 -0.0006348576 1.2919388
000010 c5 07 5b 3e ea 8f 85 3f f0 20 94 3f eb 9e 22 3e
       0.21389683 1.0434544 1.1572552 0.15880935
000020 f8 8d 84 3f 54 78 8b ba f0 aa 41 3f 4e 3f 2a 3f
       1.0355825 -0.0010640719 0.75651455 0.66502845
000030 53 a9 f2 3e 7a fb 8a 3f 28 5a a8 3f f3 22 c6 3e
       0.4739481 1.0857995 1.3152514 0.3869854
000040 50 3e a3 ba 40 4e ab 3a f3 33 0f 3b 66 d7 f5 3a
       -0.0012454484 0.0013069585 0.0021851033 0.001875621
000050 7e 3f 6a 3f 5d a7 3e 3f fa 73 2d 3f a7 af a8 b9
       0.9150313 0.74474126 0.6775509 -0.00032174328
000060 a4 ee 8e 3f 39 21 c1 3f ce 72 23 ba 6f 0e 2b 3f
       1.1166577 1.5088264 -0.0006235064 0.668189
000070 0f 2c 20 3f f6 c8 be 3f 9a 6b 9b 3f 2f a5 53 3e
       0.6256723 1.4905078 1.2142212 0.20668481
000080 b7 7c 54 3f 20 25 a8 3f 86 8f 72 3f 5e 43 38 3f
       0.830028 1.313633 0.9475025 0.71977794
000090 b2 04 1c 3f c8 4c f3 3f c6 32 9e 3f f2 db f1 3e
       0.60944664 1.9007807 1.2359245 0.47238117
0000a0 c4 a8 cb 3f 3f 3f ab 3f f0 41 6f 3f fb de 6d 3f
       1.5910878 1.3378676 0.9345999 0.92918366
0000b0 19 a8 ad 3f e9 44 9e 3f cc bb a5 3f c4 fd 3e 3f
       1.3566924 1.236478 1.2947936 0.74605966
0000c0 62 42 a6 3f ad c4 d3 3f a0 be bc 3f b9 23 bb 3f
       1.2989008 1.6544396 1.4745674 1.4620277
0000d0 ea 5e 20 3f 74 c9 cf 3f 8e 56 7a 3f 1b bb 58 3e
       0.6264483 1.6233354 0.9778832 0.21165125
0000e0 8d ad c5 3e 9b 86 c8 3f 59 06 51 3f 23 d7 8b 3f
       0.3860897 1.5666078 0.8165031 1.092503
0000f0 3b b6 54 3f 35 25 22 3a 75 32 fb 3e d1 2b 01 40
       0.8309056 0.0006185354 0.49061933 2.0182993

transformer.h.0.ln_2.bias f4 [64]
000000 98 28 4b 3a 41 55 24 39 89 0f 53 3b 86 4c 3f 3f
       0.00077498844 0.00015672018 0.0032205305 0.7472614
000010 47 a0 61 be 3d bc 55 3f 91 94 b0 be dd 72 2c bb
       -0.22033797 0.83490354 -0.34488347 -0.002631358
000020 b4 30 26 bf d5 64 7b 3a ee fe fc 3e 3a 8d 26 bf
       -0.64918065 0.0009589915 0.49413246 -0.65059245
000030 4e 8b ff 3d a1 1f 8b bd 30 3a 39 bc 41 53 39 3d
       0.12477742 -0.06793142 -0.011305377 0.045245413
000040 47 7b 49 3b 97 4b b3 3a 6a 40 95 37 8e 92 65 39
       0.0030743645 0.0013679144 1.779218e-05 0.00021893738
000050 ba f2 b5 3e 59 48 09 bf ae 11 09 3f db 7a 2e bb
       0.35536748 -0.5362602 0.535426 -0.002662352
000060 35 85 fa be 96 3f 93 3b 75 91 78 bb 0c 4b 25 bf
       -0.48929754 0.004493664 -0.0037928496 -0.6456764
000070 98 66 d6 be 40 b3 2c be df a6 25 bf e5 a0 2a bc
       -0.41875148 -0.16865253 -0.6470775 -0.010414337
000080 51 33 25 bf a5 d9 1a 3f d7 39 3f 3f 09 ad fd be
       -0.6453143 0.6048835 0.7469763 -0.49546078
000090 5d 82 03 3f 7e 5a d1 3e c7 f0 04 3f e4 f6 ac 3e
       0.51370794 0.40889353 0.519299 0.33782113
0000a0 c4 eb 2a 3e 44 22 12 3f cb e4 15 bf 5b 8a b0 3e
       0.166915 0.57083535 -0.58552235 0.34480557
0000b0 15 75 35 3f 5d ec a8 3e f8 88 1b 3f 16 b1 df be
       0.7088178 0.3299283 0.6075587 -0.43689793
0000c0 5f 6b 1f bf 0b a2 bf be 05 c8 a0 3e 83 de 97 be
       -0.6227321 -0.37428316 0.31402603 -0.2966195
0000d0 02 15 ff 3e 54 f8 ec 3e 0d f2 37 3f 5d af 35 bc
       0.49820715 0.4628321 0.71853715 -0.011089173
0000e0 cf 3f d0 3d 23 0c cb be 29 b0 13 bf c3 47 b8 be
       0.101684205 -0.39657697 -0.57690674 -0.3599225
0000f0 fc 00 2c bf a2 b4 d0 b9 88 de 54 be 65 f2 d9 3d
       -0.67189 -0.00039807433 -0.20788014 0.10641936

transformer.h.0.mlp.c_fc.weight f4 [64, 256]
000000 f8 81 55 3c 62 f1 2b 3a 7d b8 54 3d 21 69 a1 bd
       0.013031475 0.0006559101 0.051933754 -0.0788138
000010 e3 0e 36 bd 3e 1a 3e 3c 67 fe ad 3b f1 c8 e6 bd
       -0.04444779 0.011602936 0.005309868 -0.11268795
000020 e2 47 28 3d d6 26 12 3d 58 f9 8e bd ae 44 c5 3a
       0.041084178 0.035681568 -0.06981152 0.0015050375
000030 9c a8 2c bd 75 e8 2a bd 41 3f 10 3d 79 ff d0 3c
       -0.042152986 -0.041725595 0.035216574 0.025512444
000040 39 9a c8 3c 65 4e 43 3b 8d ae 7e bc 89 b6 ce 3c
       0.024487602 0.0029801365 -0.015544546 0.025233524
000050 64 36 61 3b 26 ae b9 bb 08 f9 22 3d 6e 7a 25 3c
       0.0034364695 -0.005666512 0.039788276 0.01009999
000060 07 b0 27 3d fb 7b 8e bc d4 2a 24 bc 33 cb 7b bc
       0.040939357 -0.017393103 -0.010019977 -0.015368271
000070 d9 f5 e5 bc ae d6 0b 3d 70 e8 bf bb 00 95 21 3d
       -0.02807133 0.03414028 -0.005856566 0.039448738
000080 10 8f 65 3c 95 3a 2c 3d c3 30 ca bb 8d 9d 6a bc
       0.01401116 0.042048056 -0.0061703636 -0.01431979
000090 49 5a d1 3c 8d 7a 44 3a f6 d3 9c bb 68 0a d9 3c
       0.025555747 0.0007495068 -0.00478601 0.02649422
0000a0 05 b4 82 3b 51 a3 96 bd ac df 8d bd bd fc 7b 3c
       0.003988745 -0.07355369 -0.06927428 0.015380082
0000b0 9d cc 68 3d 84 b3 02 bd 14 41 72 3d d8 33 55 bd
       0.05683576 -0.03190948 0.059144095 -0.052051395
0000c0 ef ac 8d 3c f7 ae bb 3c 8a 8a 0c 3c 1d 04 3a 3d
       0.017294375 0.022910578 0.008577952 0.04541408
0000d0 5c bd 62 3c e9 a8 45 3d b9 c8 bb 3c c6 b9 0f 3c
       0.013839092 0.04825679 0.02292286 0.008772319
0000e0 30 7c 1d 3c 0d 11 41 bd 26 d6 7d 3c 81 dd 8b 3c
       0.009612128 -0.0471354 0.0154929515 0.017073395
0000f0 9d 22 cb bc a2 a0 88 3b 43 32 9f 3b 52 3d 8a bb
       -0.024796778 0.0041695395 0.0048582866 -0.0042187357
000100 3a 28 22 bd 47 d1 36 3c 0f f6 04 3d 38 f9 a1 3a
       -0.039589144 0.011158294 0.032461222 0.0012357598
000110 36 01 da bd 96 1a 63 bd e7 f0 52 3b 20 eb 8e 3d
       -0.10644762 -0.055445276 0.0032187046 0.0697844
000120 7b a0 a8 bc e6 52 a5 bc 87 0e 26 3b bc 30 18 bd
       -0.020584336 -0.02018113 0.0025338249 -0.03715585
000130 d4 78 a4 bd 06 8f 6c 3c 92 50 b4 bc bc ce f3 bd
       -0.08030859 0.014438396 -0.022011075 -0.11904666
000140 fc b2 d4 3a 77 95 25 3b d5 3f 23 be aa ee a0 3c
       0.0016227658 0.002526609 -0.15942319 0.019645054
000150 b8 8b 81 bd 6d f2 58 bb 10 66 4d 3c f5 79 b2 bd
       -0.06325477 -0.0033103481 0.012536541 -0.08714668
000160 91 14 5b 3b a2 b7 21 bd 8a e7 ad 3b d3 ed 0a bd
       0.0033429007 -0.039481767 0.0053071426 -0.033918213
000170 ba 7c cc 3d cf 2d 4b bd e3 a3 d3 3b d6 ed 1d 3d
       0.09984727 -0.049604233 0.006458746 0.038556896
000180 a3 c8 ab 3d ce ee 5b bb 69 73 f9 bb c3 84 08 3b
       0.08387878 -0.0033559087 -0.007612635 0.0020831085
000190 21 75 96 3c 32 c5 1e bc de a5 f8 bc 99 39 a5 bb
       0.018366398 -0.00969057 -0.03035253 -0.0050422666
0001a0 c6 20 42 3c de 49 59 bd 3c dc 87 3d 20 eb 98 3b
       0.011848634 -0.05304896 0.06633803 0.004666701
0001b0 15 e4 cb 3c 94 a1 1f 3c 1f 17 73 bd 95 de 91 bc
       0.024889031 0.009743113 -0.059348222 -0.01780633
0001c0 63 4c 9d 3d 4a 12 fd bb 9f d9 81 bc e7 79 01 bb
       0.07680585 -0.0077231275 -0.01585084 -0.0019756497
0001d0 14 a2 7e bc 97 40 ee bc 54 05 b6 3a 55 3f 02 bd
       -0.015541572 -0.029083533 0.0013887086 -0.03179868
0001e0 17 31 5f bc a2 07 a7 3b 15 65 d8 bd 61 50 9e bb
       -0.013622544 0.0050973454 -0.10566155 -0.0048313593
0001f0 ce 3c b5 bc c6 75 93 3d 41 f3 0f 3e 4c 13 47 bd
       -0.02212372 0.07200198 0.14057638 -0.048602387
000200 ee 25 89 3c a0 40 85 3c 21 0d b9 bd 82 bf 39 3d
       0.01674172 0.016266167 -0.09035707 0.04534865
000210 a6 3b 02 3b 4e 6a a1 bc 15 e1 b3 bd eb ca 0f 3c
       0.001987198 -0.01970401 -0.08783165 0.008776407
000220 41 eb 04 3d a3 6c 48 3d c8 8b 7b 3c c8 46 bd bc
       0.032450918 0.04893173 0.015353151 -0.02310504
000230 27 97 48 bd 37 82 70 3c cd 34 35 bd d2 6d 4f 3c
       -0.048972275 0.014679483 -0.044239808 0.012660461
000240 35 0c bf 3b 8b d0 da 3c fc b2 53 bd aa 51 a9 bd
       0.0058303126 0.02671077 -0.051684365 -0.08267529
000250 8f 66 8c 3d 60 a3 d8 3c 89 51 54 bc d2 dc 41 bd
       0.06855499 0.02644509 -0.012958893 -0.04732973
000260 1c 9f 72 3d ea 8a c2 3a 8e b3 45 3d a7 f0 91 3c
       0.05923377 0.0014842425 0.04826694 0.017814947
000270 3e 40 ad bb 1e a0 47 3d aa 97 fe bc e4 a9 aa 3c
       -0.0052871993 0.048736684 -0.031078178 0.020832963
000280 3f 6e 93 3c 99 40 f5 3b f9 9a c8 3c 21 10 81 3d
       0.017996905 0.0074845073 0.02448796 0.063019045
000290 8e 69 db bc d0 28 15 bd f7 fd 78 3d c8 c5 c8 3c
       -0.02678373 -0.036415875 0.060789075 0.024508372
0002a0 8d 81 23 3d a5 1c ed 3a e9 55 d1 3d a6 14 e6 bb
       0.03991847 0.0018090202 0.10221464 -0.0070215045
0002b0 a4 7c 81 3c 5d 17 b9 3d ba 10 7a bd a1 af a5 bd
       0.015806504 0.09037659 -0.061051108 -0.08090139
0002c0 aa dd b2 bc 21 4a 67 3d b3 45 57 3c 1b 6d 6f 3d
       -0.021834213 0.05646718 0.013139176 0.05845366
0002d0 2c 0f e7 3c 69 df 56 3c 1c ff a3 3b 22 38 93 3d
       0.028205477 0.013114789 0.0050047766 0.07188441
0002e0 c5 19 bc bb eb 6c 8d 3b 27 8b a1 3c 24 9f dd bb
       -0.0057403767 0.0043159625 0.019719673 -0.006763356
0002f0 6f 9e 91 3c f2 cf 2d bc db 83 8d 3c 60 ec fe bd
       0.017775742 -0.01060866 0.017274788 -0.12447429
000300 a5 5b 24 bb ba 5f 36 3c aa 65 25 3c 32 57 06 bb
       -0.0025079038 0.011131221 0.010095039 -0.002049875
000310 f2 12 1e bd 2d 6b 66 3c ef 8d 04 3c 70 69 8d bb
       -0.038592286 0.014063639 0.00809048 -0.0043155476
000320 1e 39 f3 3c f2 c7 0b bd b2 ed 6e 3c 3b 73 01 ba
       0.029690322 -0.03412623 0.014583038 -0.000493813
000330 b1 47 42 ba 29 67 9d bc 84 98 8c bb 28 a0 80 bd
       -0.00074111955 -0.01921423 -0.004290642 -0.062805474
000340 b6 37 ed 3c 0e 0a cb 3c 8d 94 52 bd 60 71 0f 3d
       0.02895723 0.024785068 -0.0514112 0.035020232
000350 5b 8c e9 3b af 15 73 3c 65 c2 95 bc b0 07 c0 bd
       0.0071273274 0.014836713 -0.018281171 -0.09376466
000360 71 fb 6f 3d cb ec 38 3c 13 89 08 bd 7e dc d1 3c
       0.058589403 0.011286925 -0.03333385 0.025617834
000370 d3 5e 34 bc 77 16 9b 3c 90 39 eb ba 98 d0 4e bc
       -0.011008936 0.01893161 -0.0017946232 -0.012622975
000380 06 47 27 bc 36 50 bd ba ed f8 d7 3c ad 8f ac b9
       -0.010209804 -0.001444346 0.026363814 -0.00032913443
000390 2a 4e c9 bc 11 39 f8 bc 65 81 02 3d b6 d3 4d 39
       -0.024573404 -0.030300649 0.03186168 0.00019629192
0003a0 9d b3 7b bc 8b cb 8e bd 15 1c 4a 3d 6f 7c f4 bc
       -0.015362647 -0.069724165 0.049343187 -0.02984449
0003b0 c3 07 48 3c a1 c9 75 bc 3e c8 31 3a 98 4b 99 3d
       0.012208882 -0.015001685 0.00067818526 0.074851215
0003c0 ef 1d 4d 3d ba 79 13 3d 98 c4 85 3d f0 2c 1b 3d
       0.050077375 0.03600476 0.06531638 0.037884653
0003d0 ba 0b 1d 3c 8c 4b a0 bd cb da 2e bb 31 c6 32 3c
       0.009585315 -0.078269094 -0.0026680704 0.01091151
0003e0 9d be 5d 3c 96 d5 c2 bc 6b a2 5a 3d 73 73 2b bd
       0.013534215 -0.023783486 0.05337755 -0.041858148
0003f0 25 76 9b 3c fb fd 8f 3c 49 aa 38 3c e3 c8 01 bb
       0.018977234 0.017577162 0.011271068 -0.0019803576
